src/lib/libtf/models/force_quant.tflite (tflite, 9920 bytes, 4 tensors)

sequential_16/dense_60/MatMul i1 [128, 36] scale=0.00901264 zero_point=0
000000 11 1a 05 1a fa 07 02 e9 06 f2 03 12 06 05 0b ff
       0.15321489 0.23432866 0.0450632 0.23432866 -0.054075845 0.063088484 0.01802528 -0.20729072 0.054075845 -0.12617697 0.027037922 0.16222753 0.054075845 0.0450632 0.09913904 -0.00901264
000010 09 0a 02 f3 ed 0c f5 f3 ec ef ec e2 ff ff ef 0b
       0.08111376 0.0901264 0.01802528 -0.11716433 -0.17124017 0.10815169 -0.09913904 -0.11716433 -0.1802528 -0.15321489 -0.1802528 -0.27037922 -0.00901264 -0.00901264 -0.15321489 0.09913904
000020 04 04 f8 f4 04 f7 09 f6 01 0b fb 14 fb ec eb 06
       0.03605056 0.03605056 -0.07210112 -0.10815169 0.03605056 -0.08111376 0.08111376 -0.0901264 0.00901264 0.09913904 -0.0450632 0.1802528 -0.0450632 -0.1802528 -0.18926544 0.054075845
000030 0b 16 22 e7 1e ff 10 f2 fd f1 26 01 0b 1f fc ee
       0.09913904 0.19827808 0.30642977 -0.22531602 0.27037922 -0.00901264 0.14420225 -0.12617697 -0.027037922 -0.13518961 0.34248033 0.00901264 0.09913904 0.27939186 -0.03605056 -0.16222753
000040 f5 f5 05 04 f6 08 fd 02 f9 0c 03 01 0c 1f fa f3
       -0.09913904 -0.09913904 0.0450632 0.03605056 -0.0901264 0.07210112 -0.027037922 0.01802528 -0.063088484 0.10815169 0.027037922 0.00901264 0.10815169 0.27939186 -0.054075845 -0.11716433
000050 ef fa f2 26 09 ff d5 e8 04 03 f1 fa 16 06 b1 fe
       -0.15321489 -0.054075845 -0.12617697 0.34248033 0.08111376 -0.00901264 -0.38754353 -0.21630338 0.03605056 0.027037922 -0.13518961 -0.054075845 0.19827808 0.054075845 -0.7119986 -0.01802528
000060 ed fb f1 f3 05 05 08 00 f7 f2 f9 e8 08 f8 ef de
       -0.17124017 -0.0450632 -0.13518961 -0.11716433 0.0450632 0.0450632 0.07210112 0.0 -0.08111376 -0.12617697 -0.063088484 -0.21630338 0.07210112 -0.07210112 -0.15321489 -0.30642977
000070 1d 0f 16 0e 08 fd 09 22 12 14 ea 0c 3d e0 39 02
       0.26136658 0.13518961 0.19827808 0.12617697 0.07210112 -0.027037922 0.08111376 0.30642977 0.16222753 0.1802528 -0.19827808 0.10815169 0.5497711 -0.2884045 0.5137205 0.01802528
000080 25 f7 01 f6 f8 ef 24 fd 1d f6 11 d1 19 eb 1d 02
       0.3334677 -0.08111376 0.00901264 -0.0901264 -0.07210112 -0.15321489 0.32445505 -0.027037922 0.26136658 -0.0901264 0.15321489 -0.4235941 0.22531602 -0.18926544 0.26136658 0.01802528
000090 03 29 e7 0a f1 f0 1e f3 f9 17 0f 09 d8 0a f7 f9
       0.027037922 0.36951825 -0.22531602 0.0901264 -0.13518961 -0.14420225 0.27037922 -0.11716433 -0.063088484 0.20729072 0.13518961 0.08111376 -0.3605056 0.0901264 -0.08111376 -0.063088484
0000a0 13 fd d1 f6 1b 13 e5 26 ee 15 25 07 fe 1a 00 d6
       0.17124017 -0.027037922 -0.4235941 -0.0901264 0.2433413 0.17124017 -0.2433413 0.34248033 -0.16222753 0.18926544 0.3334677 0.063088484 -0.01802528 0.23432866 0.0 -0.3785309
0000b0 ff f6 ea f2 ff f3 16 02 02 f7 f8 fe 10 0e 18 fd
       -0.00901264 -0.0901264 -0.19827808 -0.12617697 -0.00901264 -0.11716433 0.19827808 0.01802528 0.01802528 -0.08111376 -0.07210112 -0.01802528 0.14420225 0.12617697 0.21630338 -0.027037922
0000c0 10 f3 08 fc f9 f6 f8 06 07 ef f2 03 06 f4 0b fa
       0.14420225 -0.11716433 0.07210112 -0.03605056 -0.063088484 -0.0901264 -0.07210112 0.054075845 0.063088484 -0.15321489 -0.12617697 0.027037922 0.054075845 -0.10815169 0.09913904 -0.054075845
0000d0 fd 13 0c 01 f2 fa eb 08 0a 07 f5 18 f6 ea fa 07
       -0.027037922 0.17124017 0.10815169 0.00901264 -0.12617697 -0.054075845 -0.18926544 0.07210112 0.0901264 0.063088484 -0.09913904 0.21630338 -0.0901264 -0.19827808 -0.054075845 0.063088484
0000e0 14 01 17 0f f6 f0 1a f9 0d f7 f9 ed f4 ed fd fe
       0.1802528 0.00901264 0.20729072 0.13518961 -0.0901264 -0.14420225 0.23432866 -0.063088484 0.11716433 -0.08111376 -0.063088484 -0.17124017 -0.10815169 -0.17124017 -0.027037922 -0.01802528
0000f0 00 17 fc ff 09 fb fb 09 e4 f0 e7 e9 f2 f4 0d ed
       0.0 0.20729072 -0.03605056 -0.00901264 0.08111376 -0.0450632 -0.0450632 0.08111376 -0.25235394 -0.14420225 -0.22531602 -0.20729072 -0.12617697 -0.10815169 0.11716433 -0.17124017

sequential_16/dense_61/MatMul i1 [16, 128] scale=0.006065569 zero_point=0
000000 e7 05 1c e7 2f 1b fb eb 25 fd 19 06 00 0a ee f4
       -0.15163922 0.030327845 0.16983593 -0.15163922 0.28508174 0.16377036 -0.030327845 -0.12737694 0.22442605 -0.018196706 0.15163922 0.03639341 0.0 0.06065569 -0.10918024 -0.07278682
000010 fd d9 03 f4 fc 03 07 ff 1b 13 02 16 10 7f 07 0e
       -0.018196706 -0.23655719 0.018196706 -0.07278682 -0.024262276 0.018196706 0.04245898 -0.006065569 0.16377036 0.11524581 0.012131138 0.13344252 0.0970491 0.77032727 0.04245898 0.08491796
000020 fe 23 eb 0e 71 2a 25 e9 f6 0e 19 fb ef d4 11 fb
       -0.012131138 0.2122949 -0.12737694 0.08491796 0.6854093 0.2547539 0.22442605 -0.13950808 -0.06065569 0.08491796 0.15163922 -0.030327845 -0.10311467 -0.26688504 0.10311467 -0.030327845
000030 23 e8 19 4d 19 58 06 1a 20 f9 24 28 0e 17 e8 1a
       0.2122949 -0.14557365 0.15163922 0.4670488 0.15163922 0.5337701 0.03639341 0.15770479 0.1940982 -0.04245898 0.21836048 0.24262276 0.08491796 0.13950808 -0.14557365 0.15770479
000040 1d f2 0c 25 fe 37 05 3d f2 27 26 2a f5 10 1a ff
       0.1759015 -0.08491796 0.07278682 0.22442605 -0.012131138 0.3336063 0.030327845 0.3699997 -0.08491796 0.23655719 0.23049162 0.2547539 -0.06672126 0.0970491 0.15770479 -0.006065569
000050 21 ee 2c 27 e8 f7 ed 1f 1c 02 1c fe f7 1c eb f8
       0.20016377 -0.10918024 0.26688504 0.23655719 -0.14557365 -0.05459012 -0.11524581 0.18803264 0.16983593 0.012131138 0.16983593 -0.012131138 -0.05459012 0.16983593 -0.12737694 -0.04852455
000060 fa 12 59 f8 03 12 02 22 33 0b 00 db 01 1e ec 0b
       -0.03639341 0.10918024 0.53983563 -0.04852455 0.018196706 0.10918024 0.012131138 0.20622934 0.30934402 0.06672126 0.0 -0.22442605 0.006065569 0.18196706 -0.12131138 0.06672126
000070 01 29 17 f2 0b f8 18 03 ef ef 11 f6 f2 e4 17 f4
       0.006065569 0.24868833 0.13950808 -0.08491796 0.06672126 -0.04852455 0.14557365 0.018196706 -0.10311467 -0.10311467 0.10311467 -0.06065569 -0.08491796 -0.16983593 0.13950808 -0.07278682
000080 d3 16 1b e0 18 f6 fc 2f da 2b 1d f5 12 04 23 f2
       -0.2729506 0.13344252 0.16377036 -0.1940982 0.14557365 -0.06065569 -0.024262276 0.28508174 -0.23049162 0.26081946 0.1759015 -0.06672126 0.10918024 0.024262276 0.2122949 -0.08491796
000090 05 ec 12 1d 0b 21 15 00 07 1c 19 28 ed 76 f9 20
       0.030327845 -0.12131138 0.10918024 0.1759015 0.06672126 0.20016377 0.12737694 0.0 0.04245898 0.16983593 0.15163922 0.24262276 -0.11524581 0.7157371 -0.04245898 0.1940982
0000a0 28 1e fa 28 4d f3 1b 26 13 f5 ec fe 1b f6 e9 12
       0.24262276 0.18196706 -0.03639341 0.24262276 0.4670488 -0.07885239 0.16377036 0.23049162 0.11524581 -0.06672126 -0.12131138 -0.012131138 0.16377036 -0.06065569 -0.13950808 0.10918024
0000b0 0f 10 25 1d e6 3f ff 0e e4 0f ef 1f f7 05 08 e6
       0.09098353 0.0970491 0.22442605 0.1759015 -0.15770479 0.38213083 -0.006065569 0.08491796 -0.16983593 0.09098353 -0.10311467 0.18803264 -0.05459012 0.030327845 0.04852455 -0.15770479
0000c0 1f 21 f3 f6 ec f7 f4 28 04 24 0c f6 ee ea fa 23
       0.18803264 0.20016377 -0.07885239 -0.06065569 -0.12131138 -0.05459012 -0.07278682 0.24262276 0.024262276 0.21836048 0.07278682 -0.06065569 -0.10918024 -0.13344252 -0.03639341 0.2122949
0000d0 f4 02 eb fb 14 0a f3 f1 28 21 f0 01 ee f0 00 12
       -0.07278682 0.012131138 -0.12737694 -0.030327845 0.12131138 0.06065569 -0.07885239 -0.09098353 0.24262276 0.20016377 -0.0970491 0.006065569 -0.10918024 -0.0970491 0.0 0.10918024
0000e0 13 0c 55 f9 25 1d 22 08 30 ff 2b e4 e4 15 00 1d
       0.11524581 0.07278682 0.5155734 -0.04245898 0.22442605 0.1759015 0.20622934 0.04852455 0.2911473 -0.006065569 0.26081946 -0.16983593 -0.16983593 0.12737694 0.0 0.1759015
0000f0 fa 2c e2 f0 14 0e f2 13 12 13 f1 05 24 1c dc f5
       -0.03639341 0.26688504 -0.18196706 -0.0970491 0.12131138 0.08491796 -0.08491796 0.11524581 0.10918024 0.11524581 -0.09098353 0.030327845 0.21836048 0.16983593 -0.21836048 -0.06672126

sequential_16/dense_62/MatMul i1 [8, 16] scale=0.004620102 zero_point=0
000000 db 22 2c d7 f0 ee 2e 1c 30 e8 bb 45 f0 0b 55 19
       -0.17094377 0.15708347 0.20328447 -0.18942417 -0.07392163 -0.08316183 0.21252468 0.12936285 0.22176489 -0.110882446 -0.318787 0.318787 -0.07392163 0.050821118 0.39270866 0.115502544
000010 2a 17 bb f0 eb 04 4f 45 b1 9a 28 5a a5 00 3c d4
       0.19404428 0.10626234 -0.318787 -0.07392163 -0.09702214 0.018480407 0.36498803 0.318787 -0.36498803 -0.47125039 0.18480407 0.41580915 -0.42042926 0.0 0.2772061 -0.20328447
000020 76 76 d1 14 6d f4 56 56 52 62 0b f8 be af 27 59
       0.54517204 0.54517204 -0.21714479 0.09240203 0.5035911 -0.055441223 0.39732876 0.39732876 0.37884834 0.45276996 0.050821118 -0.036960814 -0.30492672 -0.37422824 0.18018396 0.41118905
000030 28 c0 aa 96 bb 9b 55 d0 aa 4c 52 f0 02 9f 20 e3
       0.18480407 -0.2956865 -0.39732876 -0.48973078 -0.318787 -0.46663028 0.39270866 -0.22176489 -0.39732876 0.35112774 0.37884834 -0.07392163 0.009240204 -0.44814986 0.14784326 -0.13398296
000040 fe 47 34 23 36 45 b9 f7 59 fe e9 ee 38 a4 fb 51
       -0.009240204 0.32802722 0.2402453 0.16170356 0.2494855 0.318787 -0.32802722 -0.041580915 0.41118905 -0.009240204 -0.10626234 -0.08316183 0.2587257 -0.42504936 -0.023100508 0.37422824
000050 aa 3a a6 2f 2d db 96 b9 9f cc d2 f6 15 60 ea fb
       -0.39732876 0.2679659 -0.41580915 0.21714479 0.20790458 -0.17094377 -0.48973078 -0.32802722 -0.44814986 -0.2402453 -0.21252468 -0.046201017 0.09702214 0.44352978 -0.101642236 -0.023100508
000060 6a 4d 2f 2f 67 28 be a8 41 46 36 62 7f ab a9 2f
       0.48973078 0.35574785 0.21714479 0.21714479 0.4758705 0.18480407 -0.30492672 -0.40656894 0.30030662 0.3234071 0.2494855 0.45276996 0.58675295 -0.39270866 -0.40194884 0.21714479
000070 79 60 e9 56 1f 5d 63 01 6b b7 5b 09 bf 5b eb e3
       0.5590323 0.44352978 -0.10626234 0.39732876 0.14322315 0.42966947 0.45739007 0.004620102 0.49435088 -0.33726743 0.42042926 0.041580915 -0.30030662 0.42042926 -0.09702214 -0.13398296

sequential_16/dense_63/MatMul i1 [1, 8] scale=0.0061349627 zero_point=0
000000 fd b1 32 81 24 8f 66 31
       -0.018404888 -0.48466206 0.30674812 -0.77914023 0.22085866 -0.6932508 0.6257662 0.30061316
