src/lib/libtf/models/force_quant.tflite (tflite, 13640 bytes, 5 tensors)

sequential/dense/MatMul i1 [128, 36] scale=0.01159984 zero_point=0
-0.02319968 -0.01159984 0.03479952 0.12759824 -0.1739976 0.104398556 0.16239776 -0.15079792
0.115998395 0.13919808 -0.104398556 0.0 0.057999197 0.1739976 0.1739976 0.18559743
0.04639936 -0.03479952 -0.115998395 -0.20879711 0.08119888 0.15079792 -0.09279872 -0.13919808
-0.13919808 0.16239776 0.01159984 -0.01159984 0.0 0.01159984 0.02319968 -0.18559743
-0.01159984 0.08119888 -0.289996 -0.15079792 -0.057999197 -0.06959904 0.115998395 -0.104398556
-0.13919808 -0.12759824 -0.01159984 -0.03479952 0.115998395 -0.16239776 -0.104398556 0.01159984
-0.12759824 0.02319968 -0.06959904 0.13919808 0.16239776 0.24359663 0.104398556 0.04639936
-0.13919808 -0.03479952 0.22039695 -0.115998395 -0.02319968 0.30159584 0.1739976 0.03479952
-0.24359663 0.0 -0.19719727 -0.22039695 0.057999197 0.09279872 0.26679632 -0.057999197
-0.15079792 -0.1739976 -0.16239776 -0.01159984 0.01159984 -0.057999197 0.04639936 -0.15079792
0.04639936 -0.1739976 0.20879711 0.15079792 -0.08119888 0.02319968 -0.057999197 0.02319968
-0.03479952 0.0 -0.22039695 -0.24359663 -0.19719727 0.03479952 -0.18559743 -0.18559743
0.19719727 -0.27839616 0.0 0.13919808 0.08119888 -0.22039695 -0.04639936 0.06959904
-0.115998395 -0.02319968 0.20879711 0.20879711 -0.04639936 0.01159984 0.104398556 -0.12759824
0.15079792 -0.057999197 0.115998395 0.18559743 0.20879711 -0.12759824 -0.09279872 -0.104398556
-0.19719727 -0.04639936 0.09279872 0.19719727 -0.12759824 -0.22039695 0.13919808 0.01159984
0.09279872 0.01159984 -0.03479952 -0.01159984 0.01159984 -0.115998395 -0.104398556 0.1739976
0.23199679 -0.01159984 0.057999197 -0.25519648 -0.16239776 0.01159984 -0.25519648 -0.01159984
0.18559743 0.09279872 0.04639936 -0.13919808 0.057999197 -0.02319968 -0.09279872 0.18559743
0.18559743 0.16239776 0.0 0.19719727 -0.057999197 -0.115998395 -0.01159984 0.19719727
0.06959904 0.04639936 -0.16239776 0.18559743 0.04639936 0.24359663 -0.16239776 -0.13919808
0.12759824 -0.41759422 -0.03479952 0.01159984 -0.01159984 -0.6147915 -0.20879711 0.057999197
-0.3479952 -0.13919808 -0.26679632 -0.18559743 0.115998395 0.01159984 0.02319968 -0.15079792
0.19719727 0.115998395 0.02319968 0.12759824 -0.115998395 0.03479952 -0.057999197 0.057999197
-0.01159984 0.579992 0.08119888 0.13919808 -0.104398556 0.19719727 0.18559743 0.35959503
0.39439455 0.53359264 -0.19719727 0.12759824 0.06959904 -0.16239776 0.09279872 0.03479952
-0.22039695 -0.06959904 0.04639936 -0.03479952 0.09279872 0.01159984 0.0 -0.20879711
-0.01159984 0.47559342 0.01159984 0.02319968 0.18559743 0.31319568 0.15079792 0.27839616
0.48719326 0.03479952 0.06959904 0.48719326 0.01159984 0.12759824 0.289996 0.22039695
0.02319968 0.01159984 -0.22039695 0.04639936 -0.01159984 -0.104398556 0.01159984 0.15079792
-0.22039695 0.23199679 -0.15079792 -0.104398556 -0.04639936 0.22039695 -0.08119888 -0.24359663
-0.15079792 -0.06959904 -0.06959904 -0.12759824 -0.104398556 0.16239776 0.01159984 -0.057999197
00000000: feff 030b f109 0ef3 0a0c f700 050f 0f10
00000010: 04fd f6ee 070d f8f4 f40e 01ff 0001 02f0
00000020: ff07 e7f3 fbfa 0af7 f4f5 fffd 0af2 f701
00000030: f502 fa0c 0e15 0904 f4fd 13f6 fe1a 0f03
00000040: eb00 efed 0508 17fb f3f1 f2ff 01fb 04f3
00000050: 04f1 120d f902 fb02 fd00 edeb ef03 f0f0
00000060: 11e8 000c 07ed fc06 f6fe 1212 fc01 09f5
00000070: 0dfb 0a10 12f5 f8f7 effc 0811 f5ed 0c01
00000080: 0801 fdff 01f6 f70f 14ff 05ea f201 eaff
00000090: 1008 04f4 05fe f810 100e 0011 fbf6 ff11
000000a0: 0604 f210 0415 f2f4 0bdc fd01 ffcb ee05
000000b0: e2f4 e9f0 0a01 02f3 110a 020b f603 fb05
000000c0: ff32 070c f711 101f 222e ef0b 06f2 0803
000000d0: edfa 04fd 0801 00ee ff29 0102 101b 0d18
000000e0: 2a03 062a 010b 1913 0201 ed04 fff7 010d
000000f0: ed14 f3f7 fc13 f9eb f3fa faf5 f70e 01fb

sequential/dense_1/MatMul i1 [32, 128] scale=0.027215218 zero_point=0
0.1360761 -0.10886087 0.054430436 -0.08164565 -0.10886087 -0.027215218 0.2721522 0.1360761
-0.027215218 0.027215218 0.19050653 0.08164565 0.054430436 0.027215218 0.1360761 0.10886087
-0.24493696 0.21772175 -0.1632913 0.08164565 -0.5443044 0.1360761 -0.08164565 0.19050653
0.2993674 0.24493696 -0.027215218 0.19050653 0.1632913 0.21772175 0.1360761 -0.08164565
0.08164565 0.0 0.10886087 0.35379782 -0.1360761 0.19050653 0.1632913 0.21772175
-0.21772175 0.24493696 -0.08164565 0.08164565 -0.08164565 -0.40822828 0.054430436 0.10886087
-0.40822828 0.0 0.10886087 0.1360761 0.0 0.027215218 0.054430436 -0.1360761
0.0 -0.054430436 -0.027215218 0.08164565 0.1360761 0.0 -0.48987392 0.38101307
0.0 0.1632913 -0.24493696 -0.1632913 -0.1632913 -0.08164565 0.10886087 0.0
-0.08164565 0.21772175 0.1360761 -0.054430436 0.10886087 0.10886087 0.08164565 -0.054430436
0.1632913 0.054430436 0.19050653 0.027215218 0.10886087 -0.2721522 -0.1360761 -0.2721522
0.10886087 0.1360761 -0.08164565 -0.24493696 -0.3265826 -0.054430436 -0.027215218 0.1360761
-0.19050653 0.027215218 0.027215218 -0.21772175 0.0 0.054430436 -0.21772175 -0.054430436
0.0 -0.054430436 -0.054430436 -0.1632913 0.08164565 -0.08164565 0.054430436 -0.054430436
0.24493696 0.0 0.24493696 -0.38101307 0.10886087 -0.1360761 -0.027215218 0.0
0.08164565 0.19050653 0.21772175 0.1632913 0.10886087 -0.027215218 0.027215218 -0.10886087
-0.027215218 0.1360761 -0.027215218 -1.1974696 0.19050653 -0.1360761 -0.21772175 0.5987348
0.027215218 -0.08164565 0.10886087 0.08164565 -0.19050653 -0.38101307 0.054430436 -0.10886087
0.027215218 -0.08164565 0.21772175 0.10886087 -1.0613935 -0.21772175 0.1360761 -0.24493696
-1.0886087 0.1632913 0.1632913 -0.08164565 0.2721522 0.054430436 -0.027215218 -0.10886087
0.3265826 0.21772175 0.0 0.62595004 -0.027215218 -0.1632913 -0.08164565 0.24493696
-0.2721522 0.21772175 -0.1632913 0.10886087 0.21772175 0.35379782 -0.054430436 0.0
-0.2721522 0.0 -0.10886087 0.48987392 -0.1632913 0.1360761 -0.5170891 -0.5443044
-0.08164565 0.0 -0.10886087 -0.21772175 -0.027215218 -0.10886087 0.40822828 -0.08164565
0.24493696 0.1632913 0.4354435 -0.1360761 0.027215218 0.1632913 -0.08164565 0.24493696
-0.08164565 -0.1360761 0.0 -0.1632913 0.0 0.0 -0.08164565 -0.57151955
0.3265826 0.054430436 -0.027215218 -0.84367174 0.10886087 -0.21772175 0.40822828 0.2721522
0.0 0.0 0.24493696 0.054430436 0.10886087 0.027215218 0.0 0.19050653
-0.2993674 0.027215218 0.10886087 0.027215218 0.1360761 0.0 0.21772175 0.24493696
-0.054430436 0.08164565 0.0 0.027215218 -0.2993674 0.054430436 -0.08164565 0.08164565
0.1632913 -0.10886087 -0.1632913 0.0 -0.054430436 -0.1360761 0.027215218 -0.10886087
-0.21772175 0.054430436 0.0 0.08164565 -0.21772175 0.0 0.21772175 -0.19050653
00000000: 05fc 02fd fcff 0a05 ff01 0703 0201 0504
00000010: f708 fa03 ec05 fd07 0b09 ff07 0608 05fd
00000020: 0300 040d fb07 0608 f809 fd03 fdf1 0204
00000030: f100 0405 0001 02fb 00fe ff03 0500 ee0e
00000040: 0006 f7fa fafd 0400 fd08 05fe 0404 03fe
00000050: 0602 0701 04f6 fbf6 0405 fdf7 f4fe ff05
00000060: f901 01f8 0002 f8fe 00fe fefa 03fd 02fe
00000070: 0900 09f2 04fb ff00 0307 0806 04ff 01fc
00000080: ff05 ffd4 07fb f816 01fd 0403 f9f2 02fc
00000090: 01fd 0804 d9f8 05f7 d806 06fd 0a02 fffc
000000a0: 0c08 0017 fffa fd09 f608 fa04 080d fe00
000000b0: f600 fc12 fa05 edec fd00 fcf8 fffc 0ffd
000000c0: 0906 10fb 0106 fd09 fdfb 00fa 0000 fdeb
000000d0: 0c02 ffe1 04f8 0f0a 0000 0902 0401 0007
000000e0: f501 0401 0500 0809 fe03 0001 f502 fd03
000000f0: 06fc fa00 fefb 01fc f802 0003 f800 08f9

sequential/dense_2/MatMul i1 [16, 32] scale=0.01094188 zero_point=0
0.21883759 0.14224444 0.109418795 0.03282564 -0.25166324 0.24072136 0.04376752 0.273547
-0.49238458 -0.01094188 0.06565128 0.35014015 -0.109418795 0.29543075 -0.78781533 -0.14224444
0.01094188 -0.55803585 0.054709397 -0.03282564 -0.21883759 -0.04376752 -0.109418795 0.17507008
0.29543075 -0.04376752 0.20789571 0.12036068 -0.273547 0.20789571 0.1641282 0.01094188
0.054709397 -0.18601196 0.109418795 0.13130257 -0.18601196 -0.3720239 0.02188376 0.06565128
-0.09847692 0.33919826 -0.01094188 -0.24072136 0.21883759 0.03282564 -0.7002803 0.04376752
-0.09847692 0.25166324 0.29543075 0.0 -0.04376752 0.19695383 -0.08753504 0.19695383
-0.20789571 -0.25166324 0.01094188 0.3173145 0.39390767 0.09847692 -0.33919826 0.12036068
-0.36108205 -0.5689778 -0.39390767 0.054709397 -0.09847692 -0.3173145 -0.09847692 -0.3173145
-0.24072136 0.15318632 0.15318632 -0.57991964 -0.30637264 -0.01094188 0.33919826 -0.15318632
-0.054709397 -0.054709397 -0.1641282 0.42673331 -0.01094188 -0.25166324 -0.3173145 -0.06565128
0.15318632 0.29543075 -0.06565128 -0.13130257 -0.109418795 0.0 0.22977948 -0.19695383
0.109418795 -0.18601196 0.22977948 -0.15318632 -0.20789571 -0.43767518 -0.30637264 -0.3720239
0.04376752 0.17507008 -0.08753504 0.6127453 -0.29543075 -0.36108205 -0.68933845 0.04376752
-0.29543075 -0.09847692 -0.07659316 -0.03282564 0.25166324 0.054709397 -0.02188376 -0.13130257
-0.19695383 0.18601196 -0.03282564 0.03282564 0.14224444 -0.3173145 -0.09847692 -0.22977948
0.06565128 -0.1641282 0.06565128 0.273547 -0.09847692 0.08753504 0.12036068 0.24072136
0.20789571 -0.08753504 0.29543075 -0.054709397 -0.04376752 0.12036068 0.12036068 0.0
-0.14224444 0.17507008 0.26260513 0.30637264 -0.26260513 -0.18601196 0.04376752 0.04376752
0.17507008 0.39390767 -0.25166324 -0.48144272 -0.21883759 -0.3720239 0.07659316 -0.15318632
-0.29543075 -0.054709397 0.01094188 -0.13130257 -0.06565128 -0.26260513 -0.13130257 -0.22977948
0.19695383 0.26260513 -0.36108205 0.20789571 0.39390767 -0.29543075 -0.547094 0.3282564
-0.7440478 0.12036068 0.1641282 -1.367735 0.24072136 0.1641282 0.04376752 -0.44861707
0.29543075 0.09847692 0.22977948 -0.3829658 0.03282564 -0.26260513 0.09847692 -0.08753504
-0.03282564 -0.3173145 0.13130257 -0.29543075 0.19695383 -0.054709397 -0.25166324 -0.01094188
-0.41579142 0.13130257 0.1641282 -0.04376752 -0.17507008 -0.13130257 -0.49238458 -0.2844889
1.3896188 -0.07659316 -0.35014015 -0.109418795 0.0 -0.13130257 0.1641282 0.20789571
0.29543075 0.33919826 -0.01094188 -0.39390767 0.17507008 -0.109418795 0.29543075 0.03282564
-0.3829658 -0.15318632 0.054709397 -0.17507008 -0.03282564 0.0 -0.03282564 -0.054709397
0.054709397 -0.3282564 0.3829658 0.0 -0.14224444 -0.109418795 1.1598393 0.44861707
-0.547094 -0.08753504 -0.22977948 0.26260513 -0.1641282 -0.41579142 -0.2844889 -0.17507008
0.18601196 -0.22977948 0.19695383 -0.26260513 0.13130257 0.03282564 0.26260513 0.054709397
00000000: 140d 0a03 e916 0419 d3ff 0620 f61b b8f3
00000010: 01cd 05fd ecfc f610 1bfc 130b e713 0f01
00000020: 05ef 0a0c efde 0206 f71f ffea 1403 c004
00000030: f717 1b00 fc12 f812 ede9 011d 2409 e10b
00000040: dfcc dc05 f7e3 f7e3 ea0e 0ecb e4ff 1ff2
00000050: fbfb f127 ffe9 e3fa 0e1b faf4 f600 15ee
00000060: 0aef 15f2 edd8 e4de 0410 f838 e5df c104
00000070: e5f7 f9fd 1705 fef4 ee11 fd03 0de3 f7eb
00000080: 06f1 0619 f708 0b16 13f8 1bfb fc0b 0b00
00000090: f310 181c e8ef 0404 1024 e9d4 ecde 07f2
000000a0: e5fb 01f4 fae8 f4eb 1218 df13 24e5 ce1e
000000b0: bc0b 0f83 160f 04d7 1b09 15dd 03e8 09f8
000000c0: fde3 0ce5 12fb e9ff da0c 0ffc f0f4 d3e6
000000d0: 7ff9 e0f6 00f4 0f13 1b1f ffdc 10f6 1b03
000000e0: ddf2 05f0 fd00 fdfb 05e2 2300 f3f6 6a29
000000f0: cef8 eb18 f1da e6f0 11eb 12e8 0c03 1805

sequential/dense_3/MatMul i1 [8, 16] scale=0.017675675 zero_point=0
-0.45956755 -0.3535135 0.5302703 -0.26513514 -0.30048648 -0.0707027 -0.26513514 -0.45956755
-0.017675675 -0.45956755 0.3535135 0.31816214 -0.19443244 0.38886487 -0.26513514 0.0707027
0.4242162 0.22978377 0.0 -0.5656216 -0.2828108 0.3535135 0.30048648 -0.12372973
0.38886487 0.40654054 -0.12372973 0.2121081 -0.12372973 -0.2828108 0.2121081 -0.053027026
0.0707027 0.15908107 -0.44189188 -0.03535135 0.19443244 0.15908107 -0.22978377 -0.15908107
0.12372973 0.22978377 -0.2828108 -0.45956755 0.5832973 0.19443244 0.40654054 0.38886487
0.2828108 -0.12372973 -0.30048648 0.6716757 -0.2121081 0.17675675 0.12372973 0.017675675
-0.2121081 -0.08837838 0.30048648 -0.15908107 -0.47724324 -0.26513514 -0.40654054 -0.017675675
-0.2828108 0.053027026 0.7247027 -0.15908107 -0.5125946 0.24745946 0.053027026 -0.30048648
-0.12372973 -0.4949189 -0.40654054 -0.10605405 0.77772975 -0.12372973 1.308 0.017675675
-0.17675675 0.2828108 -0.26513514 0.0 0.31816214 -0.17675675 0.2121081 -0.4242162
-0.12372973 0.2828108 0.44189188 0.37118918 0.31816214 -0.24745946 -0.17675675 -0.12372973
-0.10605405 0.9191351 -0.8307567 0.17675675 0.7954054 0.03535135 0.053027026 -0.5125946
0.76005405 -0.9191351 0.5832973 0.12372973 -0.0707027 -2.2448108 -0.31816214 -0.24745946
-0.053027026 0.3535135 -0.88378376 0.26513514 0.17675675 -0.26513514 -0.22978377 -0.19443244
-0.19443244 0.17675675 0.0707027 0.5302703 0.22978377 0.1414054 0.74237835 -0.15908107
00000000: e6ec 1ef1 effc f1e6 ffe6 1412 f516 f104
00000010: 180d 00e0 f014 11f9 1617 f90c f9f0 0cfd
00000020: 0409 e7fe 0b09 f3f7 070d f0e6 210b 1716
00000030: 10f9 ef26 f40a 0701 f4fb 11f7 e5f1 e9ff
00000040: f003 29f7 e30e 03ef f9e4 e9fa 2cf9 4a01
00000050: f610 f100 12f6 0ce8 f910 1915 12f2 f6f9
00000060: fa34 d10a 2d02 03e3 2bcc 2107 fc81 eef2
00000070: fd14 ce0f 0af1 f3f5 f50a 041e 0d08 2af7

sequential/dense_4/MatMul i1 [3, 8] scale=0.0109380195 zero_point=0
-0.557839 -0.12031821 0.3281406 0.14219426 -0.13125624 -0.12031821 -0.06562812 -0.12031821
-0.30626455 -0.18594633 0.043752078 -0.25157446 -0.07656614 0.21876039 0.2843885 0.37189266
-0.2296984 0.6562812 0.7765994 0.80941343 -0.6125291 0.5140869 1.3891284 0.70003325
00000000: cdf5 1e0d f4f5 faf5 e4ef 04e9 f914 1a22
00000010: eb3c 474a c82f 7f40
