src/lib/libtf/models/force1_no_quant.tflite (tflite, 42580 bytes, 10 tensors)

sequential_4/dense_24/BiasAdd/ReadVariableOp f4 [4]
000000 72 f8 34 bd d3 29 c7 3e 4e dd 22 3e 3e 2d a0 3e
       -0.04418225 0.38899097 0.15904734 0.31284517

sequential_4/dense_23/BiasAdd/ReadVariableOp f4 [8]
000000 17 3b 6d 3e 97 c9 d2 bd 73 a3 05 3e 7c 66 ef bc
       0.23167072 -0.102923565 0.13050632 -0.029223673
000010 9a 61 5b 3e fe b2 9b bd 55 ff 9f 3e f0 6a cb 3e
       0.21423951 -0.076024994 0.3124949 0.39730024

sequential_4/dense_22/BiasAdd/ReadVariableOp f4 [16]
000000 93 9e 38 be 2d 27 63 bb 48 e9 10 be 0d 10 18 be
       -0.18029241 -0.0034660802 -0.1415149 -0.14849873
000010 bf 0a d7 3d 70 bc bb bc 43 75 f4 3c c3 b9 3a bc
       0.105000965 -0.022917002 0.029841071 -0.011396828
000020 2d 98 ac bc 8f 1b ab be ed 0f 8f 3d 5e d1 32 3d
       -0.021068657 -0.33419463 0.069854595 0.0436567
000030 a8 06 6b 3c 36 03 52 be c4 f5 80 3e 6e ba 5b bf
       0.014344849 -0.20509037 0.25187504 -0.85831344

sequential_4/dense_21/BiasAdd/ReadVariableOp f4 [32]
000000 ee 2e 1c 3e ef 3c d7 bd 59 c2 86 be 39 b2 4e 3d
       0.15252277 -0.10509669 -0.2632015 0.050462935
000010 8f 54 ca bd 14 a2 c3 bd 25 70 72 3e cf 16 85 bc
       -0.098794095 -0.09552398 0.23675592 -0.016246228
000020 6b 5d c3 3d e3 de 5d bf 59 bd 1a 3e 90 b0 a6 3e
       0.095393024 -0.86668223 0.15111293 0.32556581
000030 59 b3 73 bc f2 b0 2e bc e1 c9 e3 bd 29 ec b9 be
       -0.014874303 -0.010662304 -0.1112249 -0.36312988
000040 e9 9b 90 3d 62 6f 33 3d 61 b9 00 3e 39 36 f5 3d
       0.070609875 0.043807395 0.12570716 0.11973233
000050 59 ed df 3d 0e c4 cf 3e e0 d2 fe 3d c7 9f ce 3d
       0.10933942 0.40579265 0.12442565 0.10089069
000060 54 f5 02 be 8d 8e 5c bc cd 3c 59 be a3 fe 84 be
       -0.12788898 -0.013461721 -0.212146 -0.25975522
000070 34 cb 22 bf 48 a7 8f 3d ce 88 11 bc 20 8e 60 3f
       -0.63591313 0.07014328 -0.008882714 0.87716866

sequential_4/dense_20/BiasAdd/ReadVariableOp f4 [128]
000000 3c f3 ad 3e c3 68 b5 3e 63 6c 17 bf c9 12 6b be
       0.33974636 0.3543149 -0.5914976 -0.22956385
000010 4d 17 3a bc f5 c1 08 bf 22 65 9a 3d 87 5a 31 3d
       -0.011358094 -0.53420955 0.07538821 0.043299224
000020 59 81 d0 3d 31 b8 ef be 25 f7 8c be de e1 4d bd
       0.10180921 -0.46820214 -0.27532306 -0.05026423
000030 ce 86 9e be aa 52 23 bf 0b ec 20 be 2a 60 7a be
       -0.30962223 -0.6379801 -0.15715043 -0.24450746
000040 76 a0 c9 bd cc e6 48 be 1c 44 28 bf 79 5b b7 3d
       -0.098450586 -0.19619292 -0.65728927 0.08952994
000050 38 30 cb be b4 94 a6 be 18 39 98 be 31 4f 3f bf
       -0.39685225 -0.32535326 -0.2973106 -0.7473021
000060 d5 df ff 3e 2f b7 0a be 32 c4 3e be 7b 05 ce be
       0.49975458 -0.13546441 -0.1862953 -0.40238556
000070 6d ad 52 bd a4 7e 17 be 87 22 b6 bd c4 bb 06 bf
       -0.051434923 -0.14794403 -0.08893304 -0.5263026
000080 37 c8 0b be 3d 1a 87 be 84 10 10 be a5 08 22 bf
       -0.13650595 -0.26387206 -0.140688 -0.6329444
000090 bd ab 9d 3e fc be b4 be 9c 97 d4 bc d1 7d b8 be
       0.30795088 -0.3530196 -0.0259512 -0.3603349
0000a0 94 44 dc bd 74 7b ad 3d 44 3b bc be f1 a8 48 be
       -0.10755268 0.084708124 -0.36763966 -0.19595696
0000b0 f0 d0 84 bd aa bd df 3e e1 62 0c be ce cc 05 bc
       -0.06485164 0.4369939 -0.13709594 -0.008166505
0000c0 2c c3 97 bd 2c 57 b9 bd 32 bc ff bd 3c 9e 84 3e
       -0.07410273 -0.0904983 -0.12487067 0.25901973
0000d0 1b 4e 85 3e 2a 89 ab be 8b 90 61 3e c8 72 a1 3d
       0.26036152 -0.33503085 0.22027795 0.07883221
0000e0 c6 33 6b bd 2f cc 91 be 8f ff 2c 3d e7 55 26 3e
       -0.057422422 -0.28476092 0.042235907 0.16243707
0000f0 51 f8 ab bd cd cd d1 3d c9 db 96 3d c1 06 b6 3e
       -0.08396972 0.102443315 0.073661394 0.35552028
000100 95 15 23 be 70 a1 46 be f0 e2 87 3d d5 d9 0a bd
       -0.15926202 -0.19397521 0.06635082 -0.033899147
000110 13 38 87 bc 19 b5 bd 3c 28 b1 0d bd e7 19 33 3f
       -0.01650623 0.023157643 -0.034592777 0.699614
000120 b7 0b 1e 3e 3e b9 ed be f4 c0 54 be cd 29 c6 bd
       0.15434156 -0.4643039 -0.20776731 -0.096759416
000130 e7 b8 3e be ca e1 bb 3d 0d 66 2f 3b c0 28 2e bd
       -0.18625222 0.09173925 0.0026763708 -0.04251933
000140 35 3a 2c 3f 81 40 84 bd 9a aa 6b bd 46 a5 98 be
       0.67276317 -0.06457616 -0.057535745 -0.29813594
000150 75 91 95 3d c1 4f ad be 92 ca d3 be 53 b5 bb 3e
       0.07303134 -0.3384991 -0.41365486 0.36661777
000160 3f 4e 6a 3e 98 19 03 be bb fb be 3e 0e 42 6c 3e
       0.22881411 -0.12802732 0.3730143 0.23072073
000170 b9 3a c3 3b 9e 94 f3 3e ac 3d 2a bf a5 75 fd bd
       0.005957928 0.47574323 -0.66500354 -0.123759545
000180 03 5b d3 3e cf 67 24 be c0 b0 76 bf 39 d5 05 bf
       0.41280374 -0.16055225 -0.9636345 -0.52278477
000190 84 05 fc bd 56 27 31 be 11 c6 b7 3e cd 91 9d bb
       -0.123057395 -0.17300162 0.358933 -0.0048086406
0001a0 7d 7d 86 be 79 57 f5 3c 71 68 ef be e2 e3 8e bc
       -0.26267615 0.029948937 -0.4675937 -0.017442647
0001b0 de 49 47 be 16 1e 3f bc 01 5a 5a 3d 92 8d d9 bd
       -0.19461772 -0.011664888 0.05330849 -0.106227055
0001c0 14 c7 5a be c1 c0 be bd 42 2a 50 bd 05 e5 4c 3f
       -0.21365005 -0.09314109 -0.05082155 0.80036956
0001d0 27 12 81 bd 4b 81 0f 3e c6 4a 91 bd 0f d1 89 3d
       -0.063022904 0.14014165 -0.0709434 0.06729328
0001e0 50 a6 a9 3d 54 e9 60 3e 09 90 0d be d9 4e be be
       0.08283675 0.21964008 -0.13824476 -0.3716953
0001f0 5f df 81 3e b6 55 51 3e 5a 73 25 bf 5c 5e 29 bf
       0.2536573 0.20442852 -0.6462914 -0.66159606

sequential_4/dense_20/MatMul f4 [128, 39]
000000 87 38 c4 3e b8 2e d1 bf 57 4c a1 bf 98 9f f3 be
       0.38324377 -1.6342382 -1.2601422 -0.47582698
000010 67 12 0e be 39 3f 42 bc ba 68 9e 3d 7b 22 82 bb
       -0.13874207 -0.011855894 0.07734819 -0.0039713955
000020 e1 9a 8e be d4 d3 2c be 7f c8 5d be c9 36 d2 3d
       -0.27852538 -0.16877681 -0.21658514 0.10264356
000030 20 34 11 be fc 3e 94 bd 92 a4 c5 bd 5a 90 dd 3e
       -0.1418004 -0.07238576 -0.0965053 0.43274194
000040 b9 fb 9b be b1 39 53 be 7b 1d 81 be 05 44 43 bd
       -0.30465487 -0.20627476 -0.25217804 -0.04767229
000050 67 eb 0e be ad 9c 33 3d af 23 2a 3e 76 50 19 be
       -0.13956986 0.04385059 0.16615175 -0.149721
000060 50 ac 2d be 29 d9 05 3e c7 3e b0 bd d9 a1 5e 3d
       -0.16960263 0.13071121 -0.08605724 0.05435357
000070 a6 fa e7 bd d6 94 f6 bd a1 ba a3 3d fd 54 f3 3c
       -0.11327104 -0.12040107 0.07994581 0.029703612
000080 ae e9 a1 bd 7b fd 9b bd 7a 12 ca 3d 40 18 c4 bd
       -0.07905899 -0.07616707 0.098668054 -0.09574938
000090 68 2a 0d 3e d0 52 9d bb fb f6 3f 3e 23 f6 ce 3e
       0.13785708 -0.004801132 0.1874656 0.40422162
0000a0 a4 13 33 3f bb 2f eb 3e 47 77 c1 bd 79 f4 54 be
       0.69951844 0.45934853 -0.094465785 -0.20796384
0000b0 11 ff 19 be e1 8f 81 be 1e ae 9e bc e6 8f 97 3d
       -0.15038706 -0.25305083 -0.019370135 0.07400493
0000c0 b6 e9 5f be 49 f2 4b bd 57 8c 4e bc 21 61 d6 ba
       -0.21866497 -0.049791608 -0.012606702 -0.0016355851
0000d0 00 74 74 be e9 0d ea 3c 96 1a fd 3d b2 88 97 be
       -0.23872375 0.028571086 0.123585865 -0.29596478
0000e0 d9 ac ab 3e 5c 28 df 3d 52 3c ee bd c1 a9 e6 be
       0.3353031 0.1089637 -0.11632599 -0.45051387
0000f0 a5 02 0f be ea 9b 0d 3e 99 e2 f8 bd b9 1b a4 bc
       -0.13965853 0.13829008 -0.12152595 -0.02003275
000100 4c aa 94 bb aa 29 79 3c 55 4a 47 3b f5 5b c7 be
       -0.0045369025 0.015207687 0.0030409296 -0.38937345
000110 69 26 c0 3d 3c 02 a2 bd ee 6d 42 be 5e eb be be
       0.09382326 -0.079105824 -0.18987247 -0.37288946
000120 79 ca b6 bc ee d2 74 b9 17 d5 0d bf 29 c4 21 be
       -0.022313343 -0.00023348231 -0.55403274 -0.15797485
000130 c3 11 d4 bd ae 8e 98 be 54 aa 6a be 94 06 46 3f
       -0.1035495 -0.29796356 -0.22916538 0.7735379
000140 2c b7 3b 3f b6 9f 77 bd 59 44 d6 bd dd 65 ba 3d
       0.73326373 -0.060455047 -0.10462255 0.0910146
000150 8c 0c 29 3e 8e d6 3f be 87 52 53 3d 9b 8a dc 3d
       0.16508693 -0.1873419 0.051592376 0.107686244
000160 41 28 71 3e 42 d0 72 be fe 3a b9 3d 56 7a 10 be
       0.23550512 -0.23712257 0.09044455 -0.14109167
000170 f2 a6 db 3c ad 74 6c be 2b 86 a7 bd a5 b3 c5 3d
       0.026813004 -0.23091383 -0.081798874 0.09653405
000180 d2 79 3c 3e 74 a4 13 bc b5 b6 27 be 0b e5 2e be
       0.18405846 -0.009011377 -0.16378291 -0.1707956
000190 6f 8e 90 3e 70 e9 5c 3e 68 25 a8 3d 1c 59 34 3d
       0.28233668 0.21573424 0.0821026 0.044030294
0001a0 f0 6e 43 3e 98 8a c9 bc e4 bb e9 3d 87 82 09 bd
       0.19085288 -0.02460222 0.114127904 -0.033571746
0001b0 45 62 2d 3e 6e 68 0c 3d f4 9a 6f 3c 0f d7 ee 3d
       0.16932018 0.03427928 0.014624346 0.11662113
0001c0 15 6e 23 bd 81 6e 27 be 04 79 07 be 86 ef 85 bd
       -0.039899904 -0.16350748 -0.13229758 -0.06539826
0001d0 ed 96 50 3b 47 d2 95 be b2 e1 b6 bf 2e a8 ab 3c
       0.003182824 -0.2926199 -1.4287627 0.020954218
0001e0 36 2c 3b 3e 25 67 00 3e a0 21 db 3d 28 76 91 3d
       0.18278584 0.12539347 0.10699773 0.07102615
0001f0 91 eb 3a bd 7a fb 63 39 41 97 9f bd 13 b6 2c be
       -0.04563481 0.0002174209 -0.07792521 -0.16866331
000200 50 7d 27 be 31 89 17 3e b0 71 05 3c e4 be 1f be
       -0.16356397 0.14798428 0.008144781 -0.15600163
000210 02 4e 1a 3e 5f 78 b7 3c 44 db 27 be cf ca 4a bd
       0.1506882 0.022396265 -0.16392237 -0.04950982
000220 7b fa 25 3d 40 47 0c 3d fc 9d 97 3d 7e 4c 9d 3d
       0.04052208 0.034247637 0.0740318 0.07680605
000230 27 6b 51 bd 5f 4d 61 bd e6 26 9e bd 54 bb f7 3d
       -0.05112758 -0.055005427 -0.07722263 0.12096277
000240 03 96 4e 3e 6b 19 20 bd ed 87 83 bb 03 58 a6 bd
       0.20174412 -0.03908674 -0.0040140064 -0.08122256
000250 f9 69 13 3e 17 c1 e2 bd f6 ab 70 3e 30 44 19 3e
       0.14395894 -0.11071985 0.23503098 0.14967418
000260 e0 91 56 3e 85 d0 d5 bd 77 48 14 3d 1a e1 f4 bd
       0.20954084 -0.104401626 0.03620192 -0.11956997
000270 b3 a3 bb 3e 07 69 7a 3f 0c f3 ef be c5 c0 2e be
       0.3664833 0.9781651 -0.46865118 -0.17065723
000280 86 13 bc 3d 94 25 a1 bd 51 e0 0c 3e 9c dc 8c 3c
       0.09183411 -0.078684956 0.13757445 0.017195038
000290 d7 d4 15 3e 6a 98 db 3c 36 30 9b 3b 74 cb 7a 3d
       0.14631973 0.026806075 0.004735972 0.061229184
0002a0 8c b6 9b 3d c3 a5 cc 3d b5 41 3d bd f8 07 80 ba
       0.076031774 0.09992554 -0.04620524 -0.0009768
0002b0 40 ca 12 bd ac 53 49 bd d0 4d 3c be f2 f0 58 bd
       -0.035837412 -0.04915206 -0.18389058 -0.05296416
0002c0 6d 14 56 3e e0 61 d1 bc cf 9b 76 3d 22 41 6c be
       0.2090623 -0.025559366 0.060207184 -0.23071721
0002d0 13 e4 01 bd 95 7f 35 be 44 06 bc 3d d0 93 71 bd
       -0.03171165 -0.1772445 0.091808826 -0.058978856
0002e0 97 89 8d 3c 86 25 df bd 1b 05 92 bb 8e 5d 14 3d
       0.017277522 -0.10895829 -0.004456175 0.036222033
0002f0 5d c8 2a 3d 6b 0f 02 be ef f3 31 3e 5d 82 16 3e
       0.041694988 -0.12701194 0.1737821 0.14698167
000300 37 f8 a7 3d a6 70 e2 3d 28 b6 25 be c1 47 17 3f
       0.0820164 0.11056642 -0.16182768 0.5909386
000310 4b 6d a2 bf 29 51 89 3f 8e 28 f6 3d ad cb e5 3d
       -1.2689604 1.0727893 0.12019454 0.11220489
000320 20 15 8a 3e d4 1e d0 bd 61 c9 56 be c6 ce 2b 3d
       0.26969242 -0.1016213 -0.20975257 0.04194524
000330 04 d5 76 bd 76 cd 24 3e 2e 72 c4 bd 0a 88 5f 3d
       -0.06026174 0.16094002 -0.095920905 0.054573096
000340 a0 0e 6e 3d c7 0a 46 3e 0d 2f 34 3d 13 46 4b bd
       0.058119416 0.19340049 0.043990184 -0.049627375
000350 94 94 69 3e ed f9 7d bb 86 0d b6 3d fd 92 b7 3b
       0.22810584 -0.0038753704 0.08889298 0.005602239
000360 11 63 93 be 45 44 a1 bb a1 82 14 be 1d c7 3b be
       -0.2878652 -0.0049214684 -0.14502956 -0.18337674
000370 df 6e f3 bd 2f ca 5f bd 3e eb 81 3d 2b b5 65 bb
       -0.11886381 -0.054636177 0.06343697 -0.0035050611
000380 e1 82 3e 3e 76 e1 23 3e 7e 9b 59 be ee bd 2f 3d
       0.18604614 0.16003975 -0.21250722 0.04290574
000390 b4 c6 6b 3e c4 2d ec bd 7b a3 af be 9a 7c 06 be
       0.23025018 -0.115321666 -0.34304413 -0.13133469
0003a0 ab 63 89 be 5b 88 6f bd 1b 65 c8 3d 37 82 e4 3e
       -0.26833853 -0.058479648 0.09784909 0.44630596
0003b0 67 f7 45 bf 76 d0 03 3d eb a8 87 be 59 b6 d6 3d
       -0.7733063 0.032181226 -0.26496062 0.10483999
0003c0 b2 aa 27 bc 30 bc 3e be 00 f1 a4 be ed bb 7a 3d
       -0.010233568 -0.18626475 -0.32215118 0.061214376
0003d0 89 37 1e 3e 01 68 f1 bc 40 af fe 3d d9 47 39 bd
       0.15450872 -0.029468538 0.1243577 -0.045234535
0003e0 e4 87 82 bd 5f ae 39 3e 0d 05 9c bd c9 bb ce bc
       -0.06373575 0.18132924 -0.07618151 -0.025236027
0003f0 b3 75 8e bd 43 48 fd bd 93 52 40 3e aa 57 0e be
       -0.06956043 -0.123672985 0.187815 -0.13900629

sequential_4/dense_21/MatMul f4 [32, 128]
000000 c4 45 d8 be ca a4 a7 bd ce db 05 3e 54 b6 7a 3d
       -0.42240727 -0.08185728 0.1307213 0.061209038
000010 d9 08 2f 3d 64 41 99 be f2 e3 59 3e d5 4a 8d 3e
       0.042733047 -0.29932702 0.2127836 0.27596155
000020 2c 0c 41 3e f2 71 a2 bc 93 70 80 3d 91 2f 87 3e
       0.188523 -0.019829724 0.06271472 0.26403478
000030 38 20 00 3e 8e 29 f9 bd 8f 9c b7 3c c6 87 bb 3e
       0.1251229 -0.12166129 0.02241352 0.36627024
000040 ca ed 9a 3e 70 8d 2d 3e 91 35 03 bc 72 ba 0c 3e
       0.30259544 0.16948485 -0.008008377 0.13742998
000050 a0 65 de bd a3 c8 33 3e 3a 65 88 be 51 3d aa 3e
       -0.10859227 0.17557006 -0.2663973 0.33249906
000060 4c a9 59 3e f6 5c 85 3d f4 91 f5 3c 77 39 70 3d
       0.21255988 0.065118715 0.029976822 0.058648553
000070 9b d1 a4 3e 7b 98 94 3b 00 a3 e8 3d d6 5e 13 bc
       0.32191166 0.0045347787 0.11359215 -0.008994779
000080 33 59 77 bc 36 2f a9 3e 50 29 d0 3d a4 90 42 3e
       -0.01509695 0.33043832 0.1016413 0.19000489
000090 68 c1 13 bf ba 7c 2a 3d b7 31 6b 3e 92 de 9c 3a
       -0.5771699 0.041622855 0.22968183 0.0011968187
0000a0 e6 9f 17 3e 51 35 69 3e 37 93 f7 3d ff 0e 90 be
       0.1480709 0.22774245 0.12088626 -0.2813644
0000b0 17 a2 a4 3d 0b 03 0a 3d 77 f2 d6 3d d2 11 96 3e
       0.08038729 0.03369431 0.10495465 0.2931047
0000c0 42 6c 50 3d b9 07 88 3e 22 3d 5f 3e 49 65 bf 3b
       0.050884493 0.26568392 0.21800664 0.0058409316
0000d0 7d 76 69 3e 3e 92 1c 3e 16 58 88 be 8e 1b 1e 3e
       0.22799106 0.15290162 -0.26629704 0.15440199
0000e0 ed 18 1b 3d 68 bf 18 3e 77 36 49 3e c4 2d ad 3c
       0.037865568 0.14916766 0.19649683 0.021139987
0000f0 60 7e 34 3e 89 8b 4f bc d4 af 4e 3d 89 4d f2 be
       0.17626333 -0.012667545 0.05046065 -0.4732478
000100 39 41 5e 3e 2f 42 d4 3d 86 fc 82 3e d7 fd 2d 3e
       0.21704568 0.10364186 0.25583285 0.16991363
000110 53 58 49 3e a7 02 22 3e 94 82 06 3e 21 2e 1a bf
       0.196626 0.15821324 0.13135749 -0.6022664
000120 01 c1 eb bd 37 33 ee 3b fc c9 94 3d f7 5a f3 bc
       -0.11511422 0.007269289 0.07265088 -0.029706461
000130 f2 05 67 3c b6 1e bb ba 73 46 88 3e 65 3e 6d 3e
       0.014100539 -0.001427612 0.26616248 0.23168333
000140 60 69 3e 3f 11 a6 9a 3e 55 c0 83 3e 77 89 01 3e
       0.7437954 0.30204824 0.25732675 0.12650095
000150 87 4a 97 3e cf d2 ec bb 72 39 fe 3a 04 ec 81 be
       0.29549047 -0.007227279 0.0019395782 -0.25375378
000160 a9 8c 75 be d2 85 82 3e 78 61 82 bd a6 73 13 bf
       -0.23979439 0.25492722 -0.06366247 -0.5759834
000170 70 b3 9e 3e 37 6e 3b 3e 6a 2a 59 3c 3d 8a 7a 3e
       0.30996275 0.18303762 0.013254741 0.24466796
000180 48 76 c3 3e 86 ff d6 bb d6 5e 9b be 84 8a 35 be
       0.3817618 -0.0065612225 -0.30345792 -0.17728621
000190 9b 1b 7f 3e d8 40 13 bd 2e 97 bd bd 03 65 78 3e
       0.24912874 -0.03595051 -0.09257351 0.24257283
0001a0 70 63 62 3e 09 c3 82 3e bb f1 ac 3c fa 06 78 3e
       0.22108245 0.25539425 0.02111136 0.24221411
0001b0 4e 26 b0 3e c3 5e a6 3e 6e bf bd 3d 2f 50 69 3e
       0.34404224 0.32494172 0.09265028 0.22784494
0001c0 5b 84 20 3b 11 b3 9a 3e b7 f1 51 bf e4 a8 d9 be
       0.0024492953 0.30214742 -0.8200945 -0.42511666
0001d0 36 cf e5 3d bb 82 36 3d fc e0 2d 3e 35 13 97 3e
       0.11221163 0.044558268 0.16980356 0.2950684
0001e0 de 50 3d 3e 03 fb ad bb 2e 38 a8 3c 5b 24 35 3e
       0.1848788 -0.005309464 0.020534601 0.1768965
0001f0 85 d2 f6 3b fd d9 3d 3e 72 a9 73 bc 21 e2 7a bd
       0.00753242 0.18540187 -0.014871942 -0.06125081
000200 5c 14 c7 3e 94 03 32 be 2d 81 1a 3d 0f a1 1f bd
       0.3888272 -0.17384177 0.037720848 -0.038971957
000210 ad 8e 61 3e 7c ba 01 c0 8a d0 d5 3c fa b1 87 bd
       0.22027083 -2.027007 0.026100416 -0.06625743
000220 39 7a 9e bd a5 f1 83 3f b3 87 3c 3d 16 19 16 3e
       -0.07738156 1.0308119 0.04602785 0.14658007
000230 84 86 74 be fe 26 65 3c 9e 52 8e 3d 34 58 34 3d
       -0.23879439 0.013986347 0.06949352 0.04402943
000240 ec b9 47 3c 94 39 b1 bc 8f 99 9d 3e 5e 3a 22 bd
       0.012190323 -0.0216339 0.30781218 -0.039606445
000250 e4 b7 95 be db 4c b7 3d c6 f5 d0 bf d1 0c 11 3f
       -0.2924186 0.08950206 -1.6325004 0.5666018
000260 a4 28 ae 3e 5d b0 64 3d 53 d1 e0 3c d7 1a 15 be
       0.3401538 0.055832256 0.027443564 -0.1456102
000270 6c 0d 01 3e 0c ab 44 3e f8 66 27 bf 81 d8 86 3c
       0.12602776 0.19205874 -0.6539149 0.016460659
000280 9b ac b4 bf b4 57 10 3e a0 ec a2 3e 2b 4d 0e 3f
       -1.4115175 0.14095956 0.31821156 0.555865
000290 d0 1f 04 bf 20 24 af be 60 e0 ab bd 22 da 8a 3f
       -0.5161104 -0.3420725 -0.083924055 1.0847819
0002a0 6d ac 27 3d f9 14 fd bd f0 08 68 bc a1 51 22 3f
       0.040935922 -0.12357516 -0.014162287 0.63405806
0002b0 ad 16 5c 3d 47 e9 0e 3f 98 1e 30 be 3b 46 69 3c
       0.053732563 0.558247 -0.1719917 0.014237936
0002c0 ca a4 18 3d a8 9b 01 3e 51 a6 a0 bd aa a3 14 c0
       0.03726653 0.12657034 -0.07844222 -2.3224893
0002d0 05 3e 76 bc b8 8c 32 3d 97 89 11 bf 5d 9f ac bc
       -0.015029435 0.04359123 -0.5685057 -0.021072084
0002e0 09 1f f9 bd d6 2a b7 be b7 73 5b 3d fd d1 2c bc
       -0.121641226 -0.3577487 0.05357715 -0.010548112
0002f0 0a 20 2e be 6b bc 34 3e 11 ef f3 3d c7 e5 b6 3e
       -0.1700441 0.17650001 0.11910833 0.3572218
000300 66 be 48 bd 0a 9c 21 be 90 37 03 bd 3e e5 96 bd
       -0.049009703 -0.1578218 -0.03203541 -0.07367943
000310 a6 c5 c3 3d cc 9c eb bd 78 cf 38 3e 8c 75 21 3f
       0.09559183 -0.11504516 0.18047893 0.6306999
000320 d6 4d ce bf 18 f8 7d 3e ae 1b 88 bd f1 2a 2d 3e
       -1.6117504 0.24801672 -0.066459045 0.16910912
000330 d5 09 aa 3e 72 39 08 3c 5a 5c a5 bc 24 ab d6 3d
       0.33210626 0.008314477 -0.020185638 0.10481861
000340 c4 df ad 3c 2c ce 37 3e 9c e5 db 3b 43 f3 58 3d
       0.021224864 0.17949742 0.006710721 0.052966367
000350 80 52 c1 3d f0 72 d6 3d e5 48 9f 3e 93 52 b6 bd
       0.09439564 0.10471141 0.31110302 -0.089024685
000360 a1 fd 20 3f e0 79 f6 3d b2 5e 2b 3e 91 ec ac be
       0.62887007 0.120349646 0.16735342 -0.33774236
000370 f1 b1 84 3a 6b 6e ae 3e 51 dd ac bf 40 1c 1a 3e
       0.0010123831 0.34068617 -1.350504 0.15049839
000380 cb e4 ed 3f b8 41 3b bc 6d fd 2f 3f 0e 8f a7 bf
       1.8585447 -0.011429243 0.6874607 -1.3090532
000390 85 ff 93 3c bc 36 f1 3d 34 f6 2d bf c6 f1 a9 3e
       0.018066177 0.11778018 -0.679538 0.3319227
0003a0 f3 86 af 3d bc 11 7a 3d ed 27 5b 3e 36 95 16 bd
       0.085706614 0.06105207 0.21401949 -0.036763392
0003b0 91 97 b1 3c 3e e6 8a bc ba 52 75 bd e3 20 ef bc
       0.021678718 -0.016955491 -0.059893347 -0.029190486
0003c0 5b 39 ff bd 39 79 96 bd 23 0f 8d 3e 6a ac 7d bf
       -0.124621116 -0.0734734 0.2755061 -0.9909121
0003d0 eb 53 e0 bc f7 cb ee 3c 5c aa 15 3f 2c df 43 3e
       -0.027383765 0.029149992 0.5846307 0.19128102
0003e0 3c 7a 0f bd 35 3c 54 be 80 7d 4d 3e c8 98 01 3e
       -0.03502868 -0.20726092 0.20067406 0.12655938
0003f0 0f 3c 77 3f 0b 52 69 bf 47 5d c5 bf 5f 64 60 be
       0.9657602 -0.9114081 -1.5419091 -0.21913289

sequential_4/dense_22/MatMul f4 [16, 32]
000000 52 ed 13 3d 2f bd fa 3e a4 bb 08 3f 20 b0 57 3f
       0.036115 0.4897246 0.53411317 0.8425312
000010 76 b1 b4 3e 02 1b 24 3f 67 ab 6f be 45 c0 7f bd
       0.35291642 0.6410371 -0.23405229 -0.062439222
000020 3a 8a a4 3e 15 86 81 3c 0f 9d 3c 3d 00 16 4c 3d
       0.32136708 0.015811006 0.04604822 0.04982567
000030 e3 e4 34 3e bf ba 70 be 74 56 6e be 26 c1 90 3f
       0.17665438 -0.23508738 -0.23275167 1.1308944
000040 3a 62 1b bd 16 c3 e5 bf 70 db ff bb c2 2a 2b 3d
       -0.037935473 -1.795016 -0.0078081414 0.041788824
000050 36 c0 3c bd c5 d9 13 3f f1 46 4c bd 55 3f 4e 3e
       -0.046081744 0.57754165 -0.049872342 0.20141347
000060 3d e9 64 bf 8c b5 1e bd fb bb c7 be c2 7b 15 bf
       -0.89418393 -0.038747355 -0.39010605 -0.58391964
000070 90 55 6c 3e 8f 25 1e be e7 85 1e be f0 b8 06 3f
       0.23079515 -0.15444015 -0.15480767 0.5262594
000080 5f 78 ea bd c5 f9 85 be ec 7a a0 be fb d2 07 3e
       -0.1144874 -0.26167122 -0.31343782 0.13264076
000090 e6 2c a7 3d b9 2c 4b be 79 51 24 be b9 43 68 bc
       0.081628606 -0.19841279 -0.16046704 -0.014176303
0000a0 08 6d a9 3c 2d 8b 32 be 65 f1 9d 3b 06 3d 29 3e
       0.020681873 -0.17435904 0.0048200362 0.16527185
0000b0 78 07 5b bd fb b0 9a be 1d 65 1c 3d c2 5f 3f 3e
       -0.05347392 -0.3021315 0.038182367 0.18688872
0000c0 85 a2 ab be 09 3e 31 3d 71 a0 51 3d 4e 7d 37 be
       -0.3352243 0.043272052 0.0511784 -0.17918894
0000d0 9f 41 8e be 7e d8 44 bd 65 1f 88 3e 35 ad 4b be
       -0.2778444 -0.048058026 0.26586452 -0.19890292
0000e0 13 62 67 3e f3 d4 b8 3e d0 29 48 be 39 a4 85 3e
       0.22596006 0.36099967 -0.195472 0.26101854
0000f0 4f d8 d9 bd ae f7 3c be 2f 61 5e 3e 1a 70 04 be
       -0.10636961 -0.18453857 0.2171676 -0.12933388
000100 0e 8f aa 3d bf 67 25 bf 96 af 05 be 20 c4 da be
       0.08328067 -0.6461143 -0.13055262 -0.42727757
000110 1c bb bf be 4e b4 17 bc 21 e7 68 bf 9c 9a 00 be
       -0.3744744 -0.009259297 -0.90977675 -0.12558979
000120 39 f9 c0 3d e0 32 b0 be a2 b9 97 3d 42 f1 6f be
       0.094225354 -0.34413815 0.074084535 -0.23431876
000130 21 d9 83 3e 58 b6 4a 3e 2b f6 0d 3e 60 92 77 bf
       0.25751594 0.19796121 0.13863437 -0.96707726
000140 d5 58 59 be ae e1 1a 3e 9e c4 4d bc 16 64 d2 bd
       -0.21225293 0.15125152 -0.012559084 -0.10272996
000150 a1 0c b8 3e ba 9a 64 3e 83 45 a2 3c f2 ab 2d be
       0.35947135 0.22324648 0.019808536 -0.16960123
000160 3c df f9 3e c7 96 75 bd 64 da c2 3e 0b ee cd 3e
       0.48803127 -0.059958246 0.38057244 0.40220675
000170 cd 18 4a 3f d3 62 ca 3d 43 2b 1b 3e 28 7e f8 bd
       0.78944093 0.098821305 0.15153222 -0.121334374
000180 33 a8 83 3c 6b f1 b7 3e 73 21 ab 3e 0f 4b 8a bf
       0.016071415 0.35926375 0.33423957 -1.0804156
000190 76 50 08 be 90 30 5f bd 1a a7 17 3f 7f e4 1d be
       -0.13311943 -0.054489672 0.5923935 -0.15419196
0001a0 45 3d 20 be 31 63 44 3f c0 68 a6 be c9 9a 04 be
       -0.15648372 0.76713854 -0.32501793 -0.12949671
0001b0 b2 fe 6d 3e c2 a8 1b bf e9 ff c0 3c aa b7 47 3e
       0.2324169 -0.6080438 0.023559527 0.19503656
0001c0 da 87 20 3d 7d 36 0f be 46 fe 37 bc 0d ab 94 be
       0.03919206 -0.1398563 -0.011230057 -0.2903675
0001d0 65 d0 80 3d c2 a3 b2 bf 0a db 76 3e 8a e2 93 be
       0.06289748 -1.3956225 0.24106994 -0.28883773
0001e0 e9 05 db 3e cc 38 d8 bd 0c 5a 20 3e 74 9e 7d 3e
       0.42777947 -0.10557708 0.1565935 0.24767476
0001f0 2b c3 7c 3e ef c0 06 3e 74 05 06 3e b8 23 7b 3e
       0.24683826 0.13159536 0.13088018 0.24525344
000200 da 25 b6 3b fd aa 9a 3c 75 3a 11 bf dd a1 7b be
       0.0055587115 0.018880362 -0.56729823 -0.24573465
000210 e4 d7 5e be c4 61 ff bd aa cb 0f 3f 5c a6 27 3c
       -0.21762043 -0.12469819 0.5617014 0.010232534
000220 9f 90 32 3e 99 24 d0 be 9c 51 ee 3d 67 34 18 3e
       0.17437981 -0.40652922 0.116366595 0.1486374
000230 bb 28 6c 3e e0 28 f7 be 6f f1 f5 3e fa bc 88 3d
       0.23062412 -0.48273373 0.48035762 0.066766694
000240 2b 75 6d 3e c2 38 5c be e6 9f e8 bd 91 b7 46 bd
       0.23189227 -0.21506026 -0.11358623 -0.048514906
000250 32 7a 51 be cc 9f 04 3e 59 8b 48 3d e2 46 03 be
       -0.2045677 0.12951583 0.048961017 -0.12820008
000260 e6 17 83 3d a4 46 68 be 77 f3 6a 3e 2c 60 8f 3e
       0.06401043 -0.22683197 0.22944437 0.2800306
000270 4d 39 5f be 96 7b 47 3d 2c 06 af 3c e6 66 06 3f
       -0.21799202 0.048701845 0.021365248 0.5250076
000280 9b 42 0d 3e b0 b0 ed bd dc 70 94 be 68 19 cf be
       0.13794939 -0.11605966 -0.28992355 -0.4044907
000290 8a d8 c5 be db 30 53 3e 77 0f 0b 3f 68 29 e7 3b
       -0.3864177 0.20624106 0.5432047 0.0070544966
0002a0 9c 3f 63 be 38 8e e6 bd e9 08 35 bd 90 6f b9 bd
       -0.22192234 -0.11257595 -0.04419795 -0.09054482
0002b0 8b fa 30 be 93 07 01 bf 76 0d 54 3d 1a d0 44 be
       -0.17283075 -0.5040218 0.05177065 -0.1922001
0002c0 1f 27 17 3f ee e2 18 be 6f 91 61 3e 0c 51 b3 3d
       0.5904407 -0.14930317 0.22028135 0.08755693
0002d0 94 31 87 be b7 40 46 3e 3e 02 87 bd 55 ef ae 3c
       -0.26405013 0.19360624 -0.065922245 0.021354357
0002e0 38 8c e4 bd 5d 0a 65 3e 98 ef f9 bd 6c cc fd 3d
       -0.11159557 0.22367235 -0.12203902 0.12392506
0002f0 23 cf 45 3e 0b 75 66 be 10 7d 9c 3e b7 91 bf 3e
       0.19317298 -0.22505586 0.30564165 0.3741586
000300 62 53 3d be ac 1d 85 3d 55 c1 1e 3e 7d 1b 12 be
       -0.1848884 0.064998 0.15503438 -0.14268298
000310 8b 6d a4 bd 0d 25 13 3d 7c 4b cc 3e a0 74 a4 be
       -0.08028706 0.035924006 0.3990134 -0.32120228
000320 58 c0 90 3d 4b b5 88 3d 16 0f f2 3e 97 a7 df bd
       0.07067937 0.06675204 0.47277135 -0.10920637
000330 32 b3 ae bd a5 2b 37 bd a1 5a b9 3e 55 00 05 be
       -0.085302725 -0.044719357 0.36201957 -0.12988408
000340 a7 e3 7e be 1b b3 e5 bd b5 d5 27 be 1a 60 84 3d
       -0.2489153 -0.11215802 -0.16390117 0.064636424
000350 2f 5d 96 bd 55 44 8c bd 22 c8 68 be ff 18 48 3d
       -0.07341992 -0.06848971 -0.22732595 0.048851963
000360 74 13 52 3e a9 fa 37 3d 2f b9 b0 bd 40 ff f3 bd
       0.20515233 0.044916783 -0.08629071 -0.119139194
000370 d0 4f c7 3e 73 b2 a0 3e 70 73 68 bd b2 f8 0f 3f
       0.3892808 0.31386146 -0.056750715 0.56238854
000380 b0 bf 9b be e9 30 0c bf 80 1c 7d 3e 38 7d 34 be
       -0.30419683 -0.5476213 0.24717903 -0.17625892
000390 5a ad ac bd a4 5d a5 be 9f 52 ac be bd 9f 9d bd
       -0.08431502 -0.32298005 -0.33656785 -0.07696483
0003a0 f9 cd 8c be 81 87 7f be d6 d6 b7 be 9f 21 2e 3e
       -0.27500895 -0.24954034 -0.35906094 0.17005013
0003b0 dc f7 9a be 5a da 1d bf c5 24 4b 3e df ac 6a 3e
       -0.30267227 -0.61661303 0.19838245 0.22917508
0003c0 31 06 58 39 8b 63 4e be fa 4a 12 bc 46 c9 88 be
       0.00020601672 -0.2015516 -0.008929009 -0.2671606
0003d0 b2 f8 39 3e a4 23 80 3e 66 f7 8b bd 06 0d 37 3e
       0.18161276 0.25027192 -0.06834297 0.17876062
0003e0 01 90 13 3e 6b 5e 82 be e4 57 28 be 4d 71 94 bc
       0.14410402 -0.2546266 -0.16439778 -0.018120432
0003f0 b5 d9 93 be 21 6a 32 3e a1 41 ba 3e 10 7e 1b bf
       -0.28877035 0.17423297 0.36378196 -0.6073923

sequential_4/dense_23/MatMul f4 [8, 16]
000000 3a 4c 52 bf ed 69 bb be 09 3d 24 3f 29 c7 bb 3d
       -0.8214756 -0.36604252 0.6415563 0.09168846
000010 7b 73 a8 3e f2 e2 22 3f 4e a8 cc 3f b0 86 07 3e
       0.32900605 0.6362754 1.5988863 0.13234973
000020 0e 73 94 3d c9 43 c0 3e e8 d9 ad 3e 1b 6a f0 3e
       0.072485074 0.37551716 0.33955312 0.46955952
000030 61 cf 03 3e d5 e7 80 bf 42 87 9d 3e 5c c6 cb be
       0.12872078 -1.007075 0.30767256 -0.39799774
000040 0c 3a ee bd 43 db b2 be a3 0a 99 be 33 93 dc 3d
       -0.11632165 -0.34932908 -0.29890928 0.107702635
000050 fb d5 f9 3b f6 fb bd 3d a9 40 78 3a 32 ef 08 be
       0.0076243854 0.09276573 0.00094700843 -0.13372496
000060 e3 b4 a1 3e 9b b4 79 be 07 c8 54 bd 84 07 94 bd
       0.31583318 -0.24385302 -0.051948573 -0.07227996
000070 8b 13 ad 3e 32 bd 01 3e 1e d8 b1 bd 90 44 5f be
       0.33803973 0.12669829 -0.08683799 -0.21803498
000080 dc 06 55 3d 42 5a 84 be 2f 43 d2 3e d8 e3 15 be
       0.052008495 -0.2585011 0.41066882 -0.14637697
000090 11 e5 73 be fd 9c a6 bd e8 2e 05 bd 7d 38 0a 3c
       -0.2381785 -0.08135412 -0.032515436 0.008436319
0000a0 c2 2c 0a 3e 0a 32 92 3f 71 4c 10 3e 2a 47 57 3e
       0.13493636 1.1421521 0.1409166 0.2102324
0000b0 b3 79 d1 be b6 92 b9 be b7 ab ef 3d 10 df 12 3f
       -0.40913162 -0.36244744 0.11702674 0.57371616
0000c0 1d 1b ae bc b3 40 71 3c b1 40 1e 3d 4d 9e a0 bc
       -0.021253163 0.014724898 0.038635913 -0.019606734
0000d0 e6 48 de bd 1c f0 87 3d 99 a1 01 be b5 fb 8c be
       -0.10853748 0.06637594 -0.12659301 -0.27535787
0000e0 bb d9 d3 3d d1 ac 9e bd d6 dc 20 bf ee f1 e5 3c
       0.10344263 -0.07747806 -0.6283697 0.028069463
0000f0 54 99 ae bb 10 7b 17 3d 12 6f 5a be ce bd 9b bd
       -0.0053283367 0.036982596 -0.21331432 -0.07604562
000100 60 5c 3b 3f e8 71 8b be 77 53 5a bf 58 c5 76 bf
       0.7318783 -0.2723534 -0.8528361 -0.9639487
000110 18 6b 6d 3f 1a 44 7d be 98 a2 6e bd e2 a4 1d be
       0.9274154 -0.2473301 -0.05826053 -0.15394929
000120 a3 f0 b9 3e 50 25 32 3d 49 b2 f9 3e 07 99 8f 3f
       0.36316404 0.043492615 0.48768833 1.1218575
000130 fc 42 0d 3f fa 97 ab bd 77 d4 23 bf e6 e0 b4 3d
       0.55180335 -0.083785966 -0.6399607 0.088319585
000140 5c f8 47 be 9b 41 77 be 09 8b e5 bd 9f 82 d9 be
       -0.19528335 -0.2414612 -0.112081595 -0.42482468
000150 7c 94 ca bd 27 40 54 3e bd 0d 38 bf bd 45 7d 3d
       -0.098916024 0.20727597 -0.7189596 0.061834086
000160 8d 86 f4 be 36 c3 22 bd c6 f8 99 bd 40 14 99 3b
       -0.47758904 -0.03973695 -0.07518153 0.0046716034
000170 0c 07 65 bd ed 0b 43 bd 88 1c 10 be 55 b9 1f 3c
       -0.055914924 -0.047618795 -0.14073384 0.009748776
000180 b7 35 4c 3f f8 d8 8d bd 19 00 3a bf 3e 28 1c 3f
       0.7976946 -0.06926149 -0.726564 0.60998905
000190 af 38 2e bd 1b 0e 44 be 00 d2 a0 3f e0 5a 60 be
       -0.042534526 -0.19146006 1.2564087 -0.21909666
0001a0 58 a0 e1 be 2e 31 38 3e 8c 79 01 bd 7b 8c 22 3d
       -0.44067645 0.1798751 -0.031610057 0.039684754
0001b0 13 4b 53 3e 1f 5c c9 be b7 46 02 3f e6 30 13 3d
       0.20634107 -0.39328095 0.5088915 0.035935305
0001c0 af eb 38 bd f3 f7 f7 3d e8 6e 5f 3f d5 28 8a 3f
       -0.04514664 0.121078394 0.87278605 1.0793711
0001d0 d9 5e 48 3f 6f 63 3a 3f da 74 83 3f be b4 f7 be
       0.78269726 0.72807974 1.0270035 -0.48380083
0001e0 2c 96 26 bd 1d d8 9a 3d cc d4 a1 3e 53 3d 87 3e
       -0.04067056 0.075607516 0.31607664 0.26413974
0001f0 f8 c7 08 3f 02 aa bc be 67 63 d9 bc c4 f5 94 be
       0.5343013 -0.36848456 -0.026536657 -0.29093754

sequential_4/dense_24/MatMul f4 [4, 8]
000000 d8 69 20 3e a8 1c 5b 3f 04 6c 24 bf 8b a7 30 be
       0.15665376 0.855906 -0.6422732 -0.17251413
000010 a0 b2 85 be b1 08 8d be 39 5e dc bd de 0f 5a 3e
       -0.26112843 -0.27545694 -0.10760159 0.21295115
000020 16 16 19 be 01 6b 63 3e 18 09 b0 be 80 48 4f bf
       -0.14949831 0.22208788 -0.34381938 -0.8097
000030 8b 78 8b 3e d8 2f 63 be 52 a7 ae 3e 4f 9d 19 be
       0.27240404 -0.2218622 0.3411203 -0.15001415
000040 da 53 e5 3e b4 6e 11 be 36 32 1a 3c 5b 60 88 be
       0.44790536 -0.14202386 0.009411385 -0.26636013
000050 b0 9b 53 3f 0a 12 ff be 6c 0e a3 3e de fb 63 3c
       0.82659435 -0.4981845 0.3184694 0.01391503
000060 f3 23 1c 3e 90 68 cc be b7 82 b8 3e 7e 2a da be
       0.15248089 -0.39923525 0.36037228 -0.42610544
000070 1b 7f 46 3f 5a f9 81 be af 6d c8 3e 5f e4 a1 3e
       0.775377 -0.25385553 0.39146182 0.31619546
