src/lib/libtf/models/model.tflite (tflite, 3100 bytes, 6 tensors)

sequential/dense/BiasAdd/ReadVariableOp f4 [12]
0	0x3dd9f8bc	0.106431454
1	0x3da57ebe	0.08080815
2	0x3dc008aa	0.093766525
3	0x3daadd87	0.08343034
4	0x3da42b09	0.08016021
5	0x3dcc8f63	0.09988286
6	0x3eb1e824	0.34747422
7	0x3ebd6cda	0.3699711
8	0x3dec9984	0.11552718
9	0x3ec1d4b3	0.3785759
10	0x3efedad5	0.4977633
11	0x3ed892f6	0.42299622

sequential/dense_2/BiasAdd/ReadVariableOp f4 [2]
0	0xbe3e5a99	-0.18589248
1	0x3e3ed5c2	0.1863623

sequential/dense_1/BiasAdd/ReadVariableOp f4 [12]
0	0x3c001f76	0.007820001
1	0x3c73da2c	0.014883559
2	0x3c091072	0.008365737
3	0xbc3ce5ee	-0.011529429
4	0x3c3ca8e5	0.011514877
5	0x3f09c2be	0.5381278
6	0x3c835ff4	0.016036965
7	0x3efa7166	0.4891464
8	0xbba85925	-0.00513758
9	0xbc33cb4b	-0.010973762
10	0x3f07142c	0.52765155
11	0x3f06adf5	0.5260919

sequential/dense/MatMul f4 [12, 6]
0	0xbf005050	-0.5012255
1	0x3dbfae1c	0.093593806
2	0x3e1a141c	0.15046734
3	0xbf1c01b7	-0.60940117
4	0xbd445aa8	-0.04793802
5	0x3cd5d201	0.026101114
6	0xbef296fe	-0.47380823
7	0x3db9e54a	0.090769365
8	0x3e142bad	0.14469786
9	0xbf217b46	-0.63078725
10	0xbd393bcf	-0.045223054
11	0xbc8c8aed	-0.017156089
12	0xbef87089	-0.48523358
13	0x3d965ede	0.07342313
14	0x3e25aba1	0.16178752
15	0xbf19a2f0	-0.6001425
16	0xbced535c	-0.028970413
17	0xbd0e94cf	-0.034809884
18	0xbef11b25	-0.47091022
19	0x3dbabf88	0.09118563
20	0x3e19a07a	0.15002623
21	0xbf1e2358	-0.6177268
22	0xbd320f55	-0.043471653
23	0xbd0a8b2f	-0.033824142
24	0xbf00828a	-0.50199187
25	0x3d7ff42b	0.062488716
26	0x3e22b128	0.15887892
27	0xbf0fccaf	-0.561717
28	0xbca4ea1f	-0.020131169
29	0xbd19abde	-0.03751742
30	0xbef0672a	-0.46953708
31	0x3dafd583	0.08585646
32	0x3e314ff7	0.1731566
33	0xbf202be9	-0.62567
34	0xbd0bdcbe	-0.034146063
35	0xbc8e6780	-0.017383337
36	0x3e0e8df5	0.1392134
37	0xbee0a73b	-0.43877587
38	0xbe60835a	-0.21925107
39	0x3f012387	0.50444835
40	0xbeecd859	-0.4625881
41	0xbd7c90f3	-0.06166167
42	0x3e884926	0.26618308
43	0xbef2ea88	-0.47444558
44	0xbe2aec37	-0.16691671
45	0x3ed3d34a	0.41372138
46	0xbecb7c43	-0.39743242
47	0xbd470b0d	-0.048594523
48	0xbef875fc	-0.48527515
49	0x3d960375	0.07324878
50	0x3e49c2ba	0.19703189
51	0xbf24752a	-0.6424128
52	0xbc85580e	-0.01627734
53	0x3b0bb32a	0.0021316507
54	0x3e9da149	0.30787113
55	0xbed8fa4b	-0.42378458
56	0xbe56b878	-0.20968807
57	0x3ed095d7	0.4073932
58	0xbef0107c	-0.46887577
59	0x3c6e3a38	0.014540248
60	0x3f06e64b	0.5269515
61	0xbf285407	-0.65753216
62	0x3e783307	0.24238215
63	0x3ea89108	0.3292315
64	0xbe9b79ab	-0.30366263
65	0x3d2ca41f	0.042148706
66	0x3e952cb3	0.29135665
67	0xbf03fc6e	-0.5155705
68	0xbe54a7c6	-0.20767125
69	0x3edbb551	0.4291177
70	0xbeb410e8	-0.35169148
71	0x3cce30f6	0.02516983

sequential/dense_1/MatMul f4 [12, 12]
0	0x3ed59e36	0.41722268
1	0x3ec53323	0.38515577
2	0x3ec0093b	0.37507042
3	0x3eb98f94	0.36242354
4	0x3eb8ded1	0.36107495
5	0x3ecc02ef	0.39845988
6	0xbf2ba5d8	-0.6704993
7	0xbf09fc4e	-0.5390061
8	0x3ebf326c	0.37343156
9	0xbf2d0b39	-0.6759525
10	0xbf45af97	-0.77221054
11	0xbf12a69d	-0.5728548
12	0x3ed9a1fe	0.42506403
13	0x3ec0388b	0.3754314
14	0x3ecfaac1	0.40559962
15	0x3eca1dfd	0.39476004
16	0x3ec6ce02	0.38829046
17	0x3ec49a49	0.3839896
18	0xbf2874c4	-0.6580317
19	0xbf1a84d3	-0.60358924
20	0x3ede0685	0.4336435
21	0xbf319fc6	-0.6938442
22	0xbf57cba5	-0.8429511
23	0xbf1495ab	-0.58040875
24	0x3ebe8030	0.37207174
25	0x3ecbc307	0.39797232
26	0x3eb11714	0.3458792
27	0x3eba571e	0.3639459
28	0x3eaa88d8	0.33307528
29	0x3ec025e5	0.3752891
30	0xbf20feb2	-0.62888634
31	0xbf0a4ce6	-0.5402359
32	0x3ec4ffc6	0.3847639
33	0xbf2384ea	-0.63874686
34	0xbf4335cc	-0.7625396
35	0xbf10e742	-0.5660287
36	0xbd172057	-0.036896076
37	0xbcf3ce2d	-0.029761398
38	0xbc88963e	-0.016673204
39	0x3c021cc0	0.007941425
40	0x3d118555	0.035527546
41	0xbc7807a8	-0.015138544
42	0x3bf14563	0.007363008
43	0x3c282d58	0.010264717
44	0xbd11a196	-0.03555449
45	0x3c5a8090	0.013336316
46	0xbd50c056	-0.050964676
47	0xbb4742c4	-0.0030404786
48	0x3ed7ea77	0.4217107
49	0x3ecf2b26	0.40462607
50	0x3ec7f50c	0.39054143
51	0x3eb526fd	0.35381308
52	0x3e9fa709	0.31182125
53	0x3ed82649	0.4221671
54	0xbf2f9f53	-0.68602484
55	0xbf12f413	-0.5740368
56	0x3ed5843f	0.41702458
57	0xbf23feef	-0.6406087
58	0xbf44e225	-0.7690757
59	0xbf21afbd	-0.6315878
60	0xbe463acc	-0.19358367
61	0xbe45c4bd	-0.19313331
62	0xbe4fb438	-0.20283592
63	0xbe22c677	-0.15896021
64	0xbe37375e	-0.17892215
65	0xbe27952c	-0.16365498
66	0x3eddb3e4	0.43301308
67	0x3ece38e1	0.4027777
68	0xbe125580	-0.14290428
69	0x3edda53c	0.43290126
70	0x3f18d5ce	0.5970124
71	0x3ebc1d39	0.36741045
72	0x3ecd6a71	0.4012027
73	0x3ea403be	0.32034105
74	0x3ebf4a39	0.37361315
75	0x3ebd8bc4	0.37020695
76	0x3ec10719	0.37700728
77	0x3ed2a258	0.41139483
78	0xbf1d7561	-0.6150723
79	0xbf180516	-0.5938276
80	0x3ed1e4cc	0.4099487
81	0xbf168d2b	-0.58809155
82	0xbf4c0ab4	-0.7970383
83	0xbf2344a9	-0.6377664
84	0xbde5775f	-0.11204409
85	0xbe5d949f	-0.21638726
86	0xbe4bb3a4	-0.19892746
87	0xbe247a8e	-0.16062376
88	0xbe3a17a4	-0.1817308
89	0xbe1651fb	-0.1467971
90	0x3ee1fca6	0.44138068
91	0x3edadb4c	0.42745435
92	0xbe09a603	-0.13442235
93	0x3ed67b73	0.4189106
94	0x3f0d557e	0.55208576
95	0x3ed21050	0.4102807
96	0xbc7b5e18	-0.015342258
97	0xbd58a2f2	-0.05288977
98	0xbd1f579a	-0.038901903
99	0x3ce50106	0.02795459
100	0xbc9a650b	-0.01884701
101	0xbcba5d43	-0.022749549
102	0xbc0cecf4	-0.008601416
103	0x3cce9345	0.025216708
104	0x3cb119cc	0.021618746
105	0x3c035980	0.008016944
106	0xbc4e7589	-0.012601265
107	0xbd3cb906	-0.04607489
108	0xbd612892	-0.05497033
109	0xbc8b7500	-0.017023563
110	0xbd50ae79	-0.05094764
111	0x3d285e79	0.04110572
112	0xbc2dbe03	-0.010604384
113	0xbd0afd16	-0.033932768
114	0x3c996c61	0.018728437
115	0xbd426a43	-0.04746462
116	0xbc40a3f1	-0.011757837
117	0xbc0bfce8	-0.008544184
118	0xbca55fd7	-0.020187302
119	0x3caea75e	0.021320041
120	0xbe044d6a	-0.12920156
121	0xbe643284	-0.22284895
122	0xbe367e28	-0.17821562
123	0xbe64ff45	-0.22363003
124	0xbe106045	-0.14099224
125	0xbe069220	-0.1314168
126	0x3ed34434	0.41262972
127	0x3ee75934	0.45185244
128	0xbe3f5d2b	-0.18687885
129	0x3ec62357	0.38698837
130	0x3f1b9d36	0.6078676
131	0x3eb03f7a	0.3442343
132	0xbe676116	-0.22595629
133	0xbe4cd7b1	-0.20004155
134	0xbde420e3	-0.11139085
135	0xbe29ab6b	-0.16569297
136	0xbe609385	-0.21931274
137	0xbe418eec	-0.18902177
138	0x3ec635c2	0.3871289
139	0x3ecd7b43	0.40133104
140	0xbdd70062	-0.1049812
141	0x3eae620f	0.34059188
142	0x3f0be885	0.5465167
143	0x3ed2a98b	0.41144976

sequential/dense_2/MatMul f4 [2, 12]
0	0x3f1a0380	0.6016159
1	0x3f136b64	0.5758574
2	0x3f1b51a2	0.60671437
3	0xbc813a41	-0.015774848
4	0x3f0d3c05	0.5516971
5	0xbf09c453	-0.5381519
6	0x3f18dc82	0.5971147
7	0xbf0c38fd	-0.5477446
8	0x3c1e6bc6	0.00966925
9	0x3c94450f	0.018099336
10	0xbf02842b	-0.5098292
11	0xbf0a550a	-0.5403601
12	0xbf19ec09	-0.60125786
13	0xbf097b5c	-0.53703856
14	0xbf19d5d5	-0.60091907
15	0xbc83b6df	-0.01607841
16	0xbf15253a	-0.5825993
17	0x3efe3bb6	0.4965493
18	0xbf1c7b4c	-0.61125636
19	0x3f084052	0.53223145
20	0xbcdf7e87	-0.027282013
21	0xbc989f73	-0.018630719
22	0x3f0f2383	0.5591356
23	0x3f0c2b21	0.5475331
