src/lib/libtf/models/model.tflite (tflite, 40832 bytes, 10 tensors)

sequential/dense/BiasAdd/ReadVariableOp f4 [128]
000000 7f 54 f7 bb ba d3 85 be f2 f3 93 be fe ab ef 3d
       -0.0075479145 -0.26138097 -0.28897053 0.11702727
000010 1a 1e 83 be c3 13 bf bc c6 e4 9d be f9 52 3c 3e
       -0.25608903 -0.023324853 -0.30838603 0.18391027
000020 ea 4f c6 bd b0 b0 60 bd 33 5d eb bd c0 35 c5 bd
       -0.09683211 -0.054856002 -0.11492386 -0.096293926
000030 db bf 47 bf dd f7 49 bf 89 48 32 bf 5a d3 14 bf
       -0.78027123 -0.78893834 -0.6964193 -0.58134997
000040 42 ae 97 3e f9 9b 51 bd a8 79 bf bd e1 b1 97 be
       0.29625136 -0.051174138 -0.09349376 -0.29627898
000050 12 d0 33 bf ff ea bf bf 0c d0 ad be b0 ec fd be
       -0.70239365 -1.499359 -0.3394779 -0.4959464
000060 6e 23 47 3f 80 de bf be e0 55 ce be 63 f1 db be
       0.77788436 -0.37474442 -0.40299892 -0.429576
000070 fe d3 c2 be c6 78 64 be db 35 92 3e 8f 94 0b bf
       -0.38052362 -0.22311696 0.28556713 -0.5452356
000080 84 04 f9 bd f4 24 43 3e 82 0e ae be 69 c9 99 3e
       -0.121590644 0.19057065 -0.33995444 0.30036476
000090 21 d0 9b be eb d0 27 bf d2 fa 8f be ba 8d a5 bd
       -0.30432227 -0.6555316 -0.28121048 -0.08083673
0000a0 29 9e ce 3e 78 e7 3b be 05 b5 45 bf 19 de 23 bf
       0.40355042 -0.18350017 -0.7722934 -0.6401077
0000b0 c5 52 67 bd 7f 28 9a be 16 ea b0 3e 51 50 ec be
       -0.05647542 -0.3010902 0.34553593 -0.46155027
0000c0 03 d4 02 3e 30 01 a4 bd 67 92 ff bd 98 7c c1 3e
       0.12776189 -0.08008039 -0.12479096 0.3779037
0000d0 ed fd 37 bd ab 0f 03 bf a9 06 04 3f e5 3f 47 3f
       -0.044919897 -0.5119578 0.5157266 0.7783187
0000e0 19 ab 8a be 7c fc 6e bf 6b a3 90 bd 86 79 08 be
       -0.27083662 -0.9335401 -0.070624195 -0.13327608
0000f0 0f 30 c9 bd 8c 9c a0 be 87 b1 8e bf c0 2d 1d bf
       -0.098236196 -0.31369436 -1.1147927 -0.61397934
000100 06 c3 55 bd 5d 2f a8 be 92 6a 24 bf bb 00 d3 be
       -0.052187942 -0.32848635 -0.64225113 -0.41211495
000110 0b 9b 89 be 9e fb 3c bf 9a 7d aa bf 04 9a b1 3d
       -0.268761 -0.7382144 -1.331958 0.08671954
000120 96 69 b7 bd a4 49 dc be ef 70 8f be ac 5d 38 be
       -0.08955686 -0.43024933 -0.2801585 -0.18004483
000130 46 c9 d4 bd 1a c5 01 bf 56 0f 1c bf 23 39 c0 3f
       -0.10389952 -0.5069138 -0.609609 1.5017437
000140 8d 08 4b bf bc 26 97 be 42 78 01 bf cb b9 60 3c
       -0.7930992 -0.2952174 -0.50574124 0.0137161715
000150 07 c3 8e be 6e 14 dc 3e 0c 08 1c bc 3e 4e 1c bf
       -0.2788317 0.42984337 -0.009523403 -0.6105689
000160 55 0f 2a bd d3 b1 3d be 8e 28 8d bd 43 4a f0 3e
       -0.041518528 -0.18524866 -0.06892501 0.46931657
000170 d9 06 79 3e fe 4d fb be eb 8d 9f bd a8 a6 2d be
       0.24319018 -0.4908294 -0.077907406 -0.16958106
000180 e2 26 f9 be 70 2b da be 81 da 0a bf 15 5e ad bd
       -0.48662478 -0.42611265 -0.5423966 -0.0846521
000190 71 41 bf be 35 f8 fd be 79 4a 9d be ec b4 ac bd
       -0.37354615 -0.4960343 -0.3072088 -0.084329456
0001a0 20 02 32 bf 73 69 99 bd 08 5d cb be 4d d4 96 be
       -0.6953449 -0.07490816 -0.39719415 -0.29458848
0001b0 75 05 95 bf 44 72 10 bf d4 ed b4 bd ef 95 7a bd
       -1.164229 -0.56424356 -0.088344246 -0.061178144
0001c0 34 3e e5 bf fe 22 4e bd 94 8b 76 bd fb 8b 16 bf
       -1.7909608 -0.05032634 -0.060191706 -0.58807343
0001d0 b3 10 34 bd 0c b7 d9 3d a0 19 d2 be 30 2e e7 be
       -0.043961238 0.106306165 -0.41035175 -0.45152426
0001e0 d4 48 82 be be b2 69 bd 20 53 fa be 61 29 be be
       -0.25446188 -0.057055227 -0.48891544 -0.37140945
0001f0 ff 85 27 bf 55 2d 14 bf 07 6f 5b be 39 38 3e bf
       -0.65438837 -0.5788167 -0.21429072 -0.7430454

sequential/dense_4/BiasAdd/ReadVariableOp f4 [3]
000000 0d 69 02 3b 6b 70 c7 3e 87 93 8f 3f
       0.001989904 0.38952956 1.1216897

sequential/dense_3/BiasAdd/ReadVariableOp f4 [8]
000000 b0 98 72 bd 3a ba 6b 3e e3 81 e9 3e 62 ac 49 3e
       -0.059227645 0.23020259 0.45606908 0.19694665
000010 53 46 73 3e c1 30 b2 3e 7e 87 94 3f 2c 24 3a 3f
       0.23757295 0.3480282 1.1603849 0.72711444

sequential/dense_2/BiasAdd/ReadVariableOp f4 [16]
000000 ae 25 e6 3d e4 80 05 3e 1e 1b 91 3e a3 f0 1e 3e
       0.112376556 0.13037449 0.28341 0.15521483
000010 5d 52 d3 bd 0b 16 a0 3e 1f 44 8d 3c d0 22 57 bd
       -0.10318444 0.31266817 0.017244397 -0.052523434
000020 fc 7f bf 3c ce 53 8b 3e 37 25 8c 3e 1d 28 1c 3d
       0.023376457 0.27212375 0.27372143 0.038124193
000030 dc 9e cb 3e ba ed 92 bd c2 04 c6 3c 7f 73 0c 3e
       0.39769638 -0.07174249 0.02417219 0.13715933

sequential/dense_1/BiasAdd/ReadVariableOp f4 [32]
000000 c1 3c 90 be 72 e9 44 3e 21 b8 90 3c 05 05 96 be
       -0.28171352 0.19229677 0.017665925 -0.29300705
000010 3b e0 81 bd ae 65 ea bd 53 d2 48 be 24 ca 8b bd
       -0.06341597 -0.11445175 -0.19611482 -0.06825665
000020 dd 11 8b be ba 35 31 bd 40 3d 0c be 7b 1a 90 3e
       -0.27162066 -0.04326413 -0.1369524 0.28145203
000030 91 73 5e bd a4 d0 81 bd 6c d5 68 3f cb 7a dd 3c
       -0.05430943 -0.06338623 0.90950656 0.027036091
000040 55 94 c7 bd 08 cf 95 bd 6f 93 d2 bd 28 b2 3e 3d
       -0.09745089 -0.07314879 -0.10282027 0.04655662
000050 ee 95 5f bd af 0d f2 bd 47 aa 6d bd 0a 90 f8 bd
       -0.054586343 -0.11819016 -0.058023717 -0.12136848
000060 4b 31 83 bc 65 87 66 bd 00 82 90 3c ab 48 ce 3e
       -0.016014716 -0.056281466 0.017640114 0.40289816
000070 39 1f 5e bd f8 e3 f4 bd 0d 5a fb bc bb 12 83 bd
       -0.054228995 -0.11957544 -0.030682588 -0.06400057

sequential/dense/MatMul f4 [128, 36]
000000 aa cb 91 bc b3 bc 2c bc e2 0b 0f 3d 68 bb 01 3e
       -0.01779731 -0.010543036 0.03492344 0.12669146
000010 60 89 33 be 5c be ca 3d d1 22 29 3e ba f4 1d be
       -0.17532873 0.098995894 0.16517188 -0.15425387
000020 f2 84 f7 3d 16 9e 0d 3e ba b9 da bd b0 bb 79 bb
       0.12085904 0.13829836 -0.10679956 -0.0038106255
000030 8d 11 7a 3d 3c 36 2f 3e 88 14 2f 3e 88 54 3f 3e
       0.061051894 0.17110533 0.17097676 0.1868459
000040 b3 3c 44 3d f0 e4 ef bc b7 44 ea bd 03 20 58 be
       0.04790945 -0.02928397 -0.114388876 -0.21105962
000050 69 c6 9e 3d 98 ba 16 3e bf 63 c5 bd dc 6a 0c be
       0.077526875 0.14719617 -0.09638166 -0.13712639
000060 8e b4 12 be a9 e0 23 3e dd 8f bf 3b d4 69 16 bc
       -0.14326689 0.1600367 0.0058460073 -0.009180505
000070 4e e7 8a 3b c4 36 75 3c 1b 1f a8 3c cd 23 3b be
       0.0042389994 0.01496667 0.020522645 -0.18275376
000080 de 6f 00 bc bd 25 a1 3d 42 68 97 be e1 50 15 be
       -0.007839171 0.07868526 -0.2957173 -0.14581634
000090 34 48 71 bd 5b a9 92 bd 26 96 e4 3d 17 63 e1 bd
       -0.05890675 -0.07161208 0.11161451 -0.11005228
0000a0 19 b5 09 be 63 1f 04 be e1 91 79 bc 1f f8 ef bc
       -0.1344799 -0.12902598 -0.015232534 -0.029293118
0000b0 d2 d4 f3 3d d0 8c 2a be 5d fd ca bd 8b 6a cb 3b
       0.11905827 -0.16655278 -0.099116065 0.0062077693
0000c0 32 1c ff bd 12 c2 a0 3c 40 fb 85 bd 2c 8b 11 3e
       -0.1245655 0.01962379 -0.06542063 0.14213246
0000d0 59 b3 2b 3e 4d 54 77 3e 02 2c e1 3d 99 09 3f 3d
       0.16767634 0.24153252 0.10994722 0.046640012
0000e0 72 25 11 be 1b 66 14 bd 7a 9d 5d 3e 6a 7e f7 bd
       -0.1417444 -0.036230188 0.21642104 -0.120846584
0000f0 85 35 b2 bc f5 9a 97 3e b3 7f 31 3e 77 4f 02 3d
       -0.021754036 0.2961041 0.1733387 0.031814065
000100 13 2d 77 be 70 26 8b 3b f2 95 4a be c7 88 65 be
       -0.24138288 0.0042465255 -0.19783762 -0.22415458
000110 56 68 7c 3d 37 72 b2 3d b0 9b 86 3e c8 90 69 bd
       0.06162294 0.08713191 0.26290655 -0.05702284
000120 75 d9 1a be 0e 46 32 be 94 35 21 be 80 ca 41 bc
       -0.15122016 -0.17409536 -0.15743095 -0.011828065
000130 c0 6d 5f 3c 79 d8 7d bd 15 03 3b 3d ff 5f 1f be
       0.013637006 -0.061974023 0.045657236 -0.15563963
000140 33 15 2a 3d db 41 31 be 2c 72 58 3e 8c 79 1e 3e
       0.041524123 -0.17310278 0.21137303 0.15476054
000150 dd 1b 9d bd 91 15 e9 3c f3 a3 66 bd 91 7f c2 3c
       -0.0767133 0.028452666 -0.056308698 0.023742469
000160 b3 f5 fe bc da 85 9f bb 75 f0 60 be 09 91 73 be
       -0.031123018 -0.0048682513 -0.21966727 -0.23785795
000170 85 da 4b be 58 ee 20 3d a6 4f 3d be f9 ea 41 be
       -0.19907577 0.039289802 -0.18487415 -0.18937291
000180 1f 8b 4f 3e 33 2b 8c be cf 1b 04 3a 5c 2b 10 3e
       0.20267914 -0.27376708 0.0005039544 0.1407904
000190 55 23 a8 3d f6 a1 64 be 0f 3c 33 bd cc 1a 85 3d
       0.08209864 -0.22327408 -0.04375845 0.06499252
0001a0 63 e8 ee bd 33 4a b7 bc e7 8b 52 3e 33 e6 52 3e
       -0.11665418 -0.022374248 0.20561181 0.20595627
0001b0 9f 5c 51 bd 00 80 16 3c 69 e3 d2 3d be 91 00 be
       -0.05111372 0.009185791 0.10297281 -0.12555596
0001c0 f8 3b 1a 3e dd c5 57 bd 55 b7 ea 3d 40 2e 41 3e
       0.15061939 -0.05267893 0.11460749 0.18865299
0001d0 ce e6 50 3e 2e b9 fb bd 1c c2 ba bd 91 b8 d1 bd
       0.20400545 -0.122911796 -0.09119055 -0.102402814
0001e0 91 25 49 be dc bf 47 bd 09 9e b9 3d bf 9e 4c 3e
       -0.19643237 -0.048766956 0.09063346 0.19982432
0001f0 36 06 05 be 7b 6d 64 be 6b 7d 10 3e b9 e4 d4 3b
       -0.1299065 -0.22307388 0.14110343 0.0064969924
000200 1f 85 bb 3d ee 8f 6d 3c 0a d7 1b bd 18 74 e4 bb
       0.0915625 0.014499648 -0.038046874 -0.0069718473
000210 75 fa 20 3c 6c e9 e8 bd 98 1b d5 bd 98 60 36 3e
       0.009825339 -0.11372647 -0.10405654 0.17810285
000220 10 01 70 3e 26 2d 0c bc 2c fa 7e 3d 4d 19 85 be
       0.23437905 -0.008555686 0.0622503 -0.25995865
000230 0a a4 27 be 41 35 75 3c c1 74 85 be 94 91 00 bc
       -0.1637117 0.01496631 -0.2606564 -0.0078472085
000240 18 89 41 3e 83 f6 c1 3d 75 6f 4b 3d 06 63 0b be
       0.18899953 0.094708465 0.04966684 -0.13611993
000250 e1 b9 62 3d 05 60 af bc 27 46 c1 bd cd 1c 43 3e
       0.05535305 -0.02140809 -0.094372086 0.19053955
000260 bf b9 39 3e 6d c7 24 3e 5e f7 82 bb f7 01 4a 3e
       0.18137263 0.160917 -0.0039967736 0.19727312
000270 ad bb 57 bd 1e c6 ef bd 87 f6 37 bc 5e 52 45 3e
       -0.052669216 -0.1170771 -0.01122821 0.19269702
000280 eb fd 98 3d 6b 2d 47 3d 26 40 2a be 99 c3 43 3e
       0.07470306 0.0486273 -0.16626033 0.19117583
000290 2c c6 2f 3d 1e cb 78 3e 28 9e 29 be 2d 23 0c be
       0.0429136 0.24296233 -0.16564238 -0.13685293
0002a0 89 9a 03 3e ee 38 d7 be e3 00 25 bd c6 b9 44 3c
       0.12851919 -0.4203562 -0.04028405 0.012007182
0002b0 24 ed 1f bc 44 a1 1e bf 34 a8 57 be f2 b0 5d 3d
       -0.009761129 -0.6196482 -0.21060258 0.054123826
0002c0 ed 47 b2 be 0c bb 08 be d0 37 8b be b7 7f 3c be
       -0.348205 -0.13352603 -0.2719102 -0.18408094
0002d0 9f 4d f9 3d c8 aa 21 3c 6e 1c e1 3c c5 bd 14 be
       0.12173008 0.009867378 0.027479377 -0.14525516
0002e0 22 da 4b 3e 12 b5 e3 3d cc f1 aa 3c ad c3 03 3e
       0.1990743 0.11118521 0.02086725 0.12867613
0002f0 19 a5 e5 bd ce 60 00 3d 43 dd 79 bd 51 6a 5a 3d
       -0.112131305 0.03134232 -0.061002027 0.053324047
000300 de 7e 53 bc aa eb 14 3f 70 36 a8 3d 2a 1b 09 3e
       -0.012908665 0.58172095 0.08213508 0.13389269
000310 cb 46 cd bd b7 b8 49 3e 42 1e 3b 3e f6 1e ba 3e
       -0.10023268 0.1969937 0.18273261 0.36351746
000320 b2 4f c9 3e 0b 12 09 3f d8 a7 4a be e2 c2 03 3e
       0.39318615 0.53543156 -0.1979059 0.1286731
000330 13 f4 92 3d 3b 8b 24 be f5 28 b3 3d 7d 21 24 3d
       0.0717546 -0.16068737 0.08748046 0.040071
000340 bf 16 67 be cc 18 87 bd 0a c5 3a 3d 90 da 03 bd
       -0.2256727 -0.065965265 0.045598067 -0.03219086
000350 ae 3d ba 3d 95 c0 14 3c 2a 9b a8 bb c6 08 50 be
       0.09093796 0.009079118 -0.00514545 -0.20315847
000360 cc 7d 68 bc 2c f0 f2 3e 29 d4 0a 3c 29 a8 ad 3c
       -0.014190149 0.47448862 0.0084734345 0.02119835
000370 6c 2e 43 3e 92 e9 9d 3e 82 3b 1e 3e 54 5f 91 3e
       0.19060677 0.30842263 0.15452388 0.28393042
000380 5f 22 f8 3e 0e fc f9 3c f7 87 91 3d 83 4f fa 3e
       0.48463723 0.030515697 0.07106011 0.48888788
000390 87 10 8a 3c 85 f6 07 3e 8d 2a 96 3e d6 f2 5b 3e
       0.016853584 0.13277633 0.2932934 0.21479353
0003a0 b6 26 8f 3c 97 de 51 3c e0 fc 60 be 38 ec 47 3d
       0.017474514 0.012809417 -0.21971464 0.04880926
0003b0 a3 05 30 bc 00 c4 da bd 79 8a 81 3c 3c 82 1d 3e
       -0.010743531 -0.10681915 0.0158131 0.15381712
0003c0 2f dd 5f be 6c e2 69 3e f9 7c 17 be f5 05 d0 bd
       -0.21861719 0.2284028 -0.14793767 -0.10157386
0003d0 20 1d 3e bd 8b 1f 64 3e 4c b1 a4 bd e0 01 78 be
       -0.046414495 0.22277658 -0.08041629 -0.24219465
0003e0 4b c9 1a be eb d9 8d bd a8 d7 86 bd c8 81 00 be
       -0.1511585 -0.0692633 -0.06584102 -0.12549508
0003f0 d5 ab d5 bd bc 49 21 3e e2 39 6d 3c 43 cc 76 bd
       -0.10433165 0.15750784 0.014479132 -0.060253393

sequential/dense_1/MatMul f4 [32, 128]
000000 12 19 10 3e 44 1e cb bd 57 58 2a 3d c5 cc bb bd
       0.14072064 -0.09917882 0.041588154 -0.09169916
000010 b4 1e d7 bd 28 3d e9 bc 4f 3e 8a 3e 64 3d 04 3e
       -0.10503903 -0.028471544 0.27000663 0.12914044
000020 87 66 b7 bc 4a 18 f8 3c 3c 39 44 3e 66 b9 af 3d
       -0.022387756 0.03028502 0.19162458 0.08580284
000030 f6 f2 2f 3d 5b 36 25 3d 60 6d 06 3e 56 78 ef 3d
       0.042956315 0.04033504 0.13127661 0.11692874
000040 2d 0a 74 be cd e8 6b 3e 87 ef 26 be b0 78 a3 3d
       -0.23832007 0.23038025 -0.1630231 0.07982004
000050 d7 55 08 bf ff 48 0e 3e 8c b9 ab bd 42 04 3b 3e
       -0.5325598 0.13895033 -0.08385 0.18263343
000060 58 46 95 3e fa 95 79 3e 22 87 c2 bc 1b 02 38 3e
       0.2915523 0.24373618 -0.023746077 0.17969553
000070 60 f1 26 3e 9e 4d 5b 3e 64 96 02 3e 20 93 aa bd
       0.16303015 0.21416327 0.12752682 -0.08328843
000080 74 d5 a0 3d 5a 93 10 3c eb 1e e1 3d 7f be b6 3e
       0.07853213 0.008824194 0.10992225 0.35692212
000090 f2 66 0e be 21 13 37 3e 59 9e 24 3e 94 1c 65 3e
       -0.13906458 0.17878391 0.1607603 0.22374183
0000a0 be d9 5f be 17 c2 6d 3e 12 18 97 bd e4 a2 a0 3d
       -0.21860406 0.2321857 -0.07377638 0.07843569
0000b0 c2 df 9d bd 28 c4 cb be 03 a0 6c 3d e3 2f e2 3d
       -0.07708694 -0.39798093 0.057769787 0.1104429
0000c0 e9 98 ca be a7 cd 9d 3a d4 a2 dd 3d ab 98 0e 3e
       -0.39569786 0.0012039439 0.108220726 0.13925426
0000d0 a4 76 f1 3b 10 54 25 3d bf da 7a 3d 15 95 09 be
       0.0073688794 0.04036337 0.06124377 -0.13435777
0000e0 c7 b9 a7 bb 57 c3 36 bd 27 e9 79 bc f4 80 8b 3d
       -0.005118582 -0.044619884 -0.015253342 0.06811705
0000f0 71 71 13 3e 07 7b 14 bc 7d 36 00 bf 33 91 c0 3e
       0.14398743 -0.009062535 -0.5008314 0.37610778
000100 43 98 17 3c 4b d9 27 3e 27 44 76 be 82 56 1f be
       0.009252611 0.16391484 -0.24049436 -0.15560344
000110 78 18 32 be 6d 80 b4 bd 41 00 f1 3d 90 4a 54 bc
       -0.17392147 -0.08813558 0.117676266 -0.01295723
000120 cb 44 b2 bd 26 69 5a 3e 82 6e fb 3d 7f d2 7c bd
       -0.087045275 0.21329173 0.12276937 -0.061724182
000130 83 9a d1 3d 5f 26 ea 3d 9a f5 b6 3d 1c ad 5a bd
       0.10234549 0.114331 0.089335635 -0.053387746
000140 36 db 21 3e 08 f9 5e 3d 9d ca 3a 3e 35 66 87 3c
       0.15806279 0.054436713 0.18241353 0.016528228
000150 f7 84 cc 3d 70 85 88 be c8 68 14 be a9 e3 87 be
       0.099862985 -0.26664305 -0.14493096 -0.26540878
000160 77 8c d8 3d b8 d2 12 3e 6d 45 a1 bd e6 f7 80 be
       0.105736665 0.14338195 -0.0787457 -0.25189131
000170 b9 92 ac be 0b db 34 bd d5 b1 a1 bc b5 3c 12 3e
       -0.3370569 -0.04415421 -0.019738117 0.1428097
000180 72 c8 38 be da 25 ba 3c 46 40 e5 3c 98 12 64 be
       -0.18045214 0.022723127 0.02798475 -0.22272718
000190 b2 93 45 ba 40 ea 75 3d 7e 5f 59 be 34 54 6d bd
       -0.0007536962 0.06003785 -0.21227834 -0.05794163
0001a0 f7 c1 bb 3b f2 72 6f bd 61 46 2f bd fc ca 29 be
       0.0057299095 -0.05845923 -0.042791728 -0.16581339
0001b0 da 9f 9b 3d c6 b9 aa bd a1 86 2d 3d 43 f8 7f bd
       0.07598849 -0.08336215 0.04236472 -0.06249262
0001c0 44 13 82 3e 64 6a dc 3b b9 17 71 3e 2b 3e c3 be
       0.25405324 0.00672655 0.23544206 -0.38133368
0001d0 53 62 d7 3d 48 6d 16 be cd 87 d7 bc de 5f 71 bb
       0.10516801 -0.14690125 -0.026309872 -0.0036830823
0001e0 1b 5f bc 3d 13 4c 4b 3e 3c f5 64 3e e3 5a 28 3e
       0.091978274 0.19853239 0.22359174 0.1644092
0001f0 1b c3 e5 3d 85 c3 7a bc df c8 0d 3d 5a d3 e6 bd
       0.11218854 -0.015305405 0.034615394 -0.11270781
000200 3d 4f b9 bc 94 a0 05 3e 7b a7 86 bc e7 dd 9a bf
       -0.022620792 0.13049537 -0.016437283 -1.2098969
000210 c9 23 42 3e ad 82 17 be 5e b9 69 be 0f 20 1b 3f
       0.18958963 -0.14795943 -0.22824618 0.6059579
000220 ad 2c 6a 3c ed cc b2 bd 2e 51 eb 3d e3 52 92 3d
       0.014292878 -0.08730493 0.11490093 0.07144716
000230 b7 54 4c be bd 33 bd be 08 d6 27 3d 68 44 c3 bd
       -0.19954191 -0.36953536 0.0409756 -0.09534532
000240 78 ac c1 3c 26 95 9d bd 50 db 59 3e 3b cb dc 3d
       0.02364181 -0.076944634 0.21275067 0.10780951
000250 22 78 86 bf ec 1f 56 be b1 17 19 3e 2d bb 80 be
       -1.0505412 -0.20910615 0.14950444 -0.25142804
000260 26 7b 8c bf 4e 84 21 3e 43 51 1b 3e 67 4e 9d bd
       -1.0975082 0.15773126 0.15167718 -0.0768097
000270 d3 de 88 3e 80 5e 85 3d 2e 44 b7 bc 42 ff e2 bd
       0.267325 0.06512165 -0.022371378 -0.11083843
000280 12 65 a0 3e 46 79 62 3e 3f e7 58 bc 70 59 20 3f
       0.3132711 0.22116575 -0.013238727 0.6263647
000290 1c 76 10 bd d3 4c 2a be d2 11 a9 bd 03 1d 7f 3e
       -0.035268888 -0.16630869 -0.08255352 0.24913411
0002a0 d9 8a 8a be c3 96 63 3e 7d c8 19 be 4e 4a f3 3d
       -0.27059057 0.2222548 -0.15017886 0.11879407
0002b0 b8 ad 53 3e 22 ff af 3e 67 4a 87 bd 9f 48 23 bc
       0.20671737 0.34374338 -0.06605988 -0.009966045
0002c0 66 de 88 be b1 ac 3e 3c 16 bf d0 bd 2c f5 fd 3e
       -0.26732177 0.0116378525 -0.10192697 0.49601114
0002d0 d2 ae 24 be 18 9b 09 3e 4a 27 03 bf 2c b0 09 bf
       -0.16082314 0.1343807 -0.51231825 -0.5378444
0002e0 a6 8b a4 bd 6a 15 8a 3a 5f 36 e7 bd d8 40 5c be
       -0.08034448 0.0010534946 -0.11289667 -0.21509111
0002f0 be fc cd bc 5b c3 d7 bd 9a 94 d5 3e 7a a8 a0 bd
       -0.02514493 -0.10535308 0.41714936 -0.07844634
000300 64 e3 76 3e 12 c0 31 3e 3b eb e3 3e 7c 96 08 be
       0.2411018 0.17358425 0.44515404 -0.13338655
000310 f1 fc 0a 3d 80 e4 1b 3e 80 db aa bd 47 8e 7a 3e
       0.03393263 0.15223885 -0.083426476 0.24468337
000320 a5 26 ad bd a6 de 06 be 21 cd ee 3b f0 3d 1f be
       -0.084546365 -0.13170871 0.007287637 -0.15550971
000330 42 0f 31 bc 98 3f 38 bc 4f b2 9d bd ac 1e 10 bf
       -0.01080686 -0.011245631 -0.07700025 -0.562968
000340 0d 8a a0 3e 0f 32 5f 3d 18 ef 0e bd 06 39 55 bf
       0.31355324 0.0544911 -0.034895986 -0.83290136
000350 67 f2 d8 3d 74 11 64 be e9 0b d0 3e b4 15 8d 3e
       0.105931096 -0.22272283 0.40634087 0.2755562
000360 13 1d 40 3c 2e e7 08 3b 86 1e 81 3e 58 4f 77 3d
       0.011725682 0.0020889747 0.252186 0.060378402
000370 59 c6 db 3d 1b 61 d1 3c 0c 1a 40 bb 0d 85 4b 3e
       0.10731191 0.025558999 -0.00293124 0.19874974
000380 2c ed 93 be b1 16 ed 3c 16 da eb 3d fa 8b 0a 3d
       -0.28891885 0.028941484 0.11516206 0.0338249
000390 95 99 15 3e 05 d2 2e bc 0b 48 64 3e 02 c9 76 3e
       0.14609368 -0.01067019 0.22293107 0.24100116
0003a0 a6 f1 2b bd 17 99 c1 3d 8e bf 98 ba 92 94 de 3c
       -0.0419785 0.09453028 -0.0011653767 0.027170453
0003b0 24 b3 9a be 2e 8a 5d 3d 38 9b b1 bd 7e 91 9f 3d
       -0.30214798 0.054086857 -0.08672184 0.07791422
0003c0 8b 63 1d 3e 66 e2 df bd 8f 04 1e be 50 ff d5 bb
       0.15370004 -0.10931854 -0.15431426 -0.0065306798
0003d0 d0 58 4e bd 11 b6 fd bd 4b 18 7a 3c 6c 29 e7 bd
       -0.050377667 -0.12388242 0.015264581 -0.112871975
0003e0 6a 1e 6b be 64 1d 30 3d 1e 59 b1 3b 6c a0 9c 3d
       -0.22960821 0.04299678 0.005412235 0.076477855
0003f0 c9 4f 6b be 33 51 96 3b 85 60 69 3e e0 da 4e be
       -0.22979654 0.0045873164 0.22790726 -0.20200682

sequential/dense_2/MatMul f4 [16, 32]
000000 3b 1a 5f 3e 62 1c 0c 3e 9c 95 de 3d 77 2e 0f 3d
       0.2178735 0.13682702 0.108683795 0.03495642
000010 42 22 83 be c2 54 78 3e 55 31 36 3d 5a 34 8c 3e
       -0.25612074 0.24251083 0.04448064 0.2738369
000020 78 f2 fa be 20 72 b5 bb cd 41 7e 3d cc 2d b2 3e
       -0.49013114 -0.0055372864 0.06207447 0.34800565
000030 cb 03 e2 bd 3a 2e 96 3e f7 36 4a bf 0b b1 0f be
       -0.1103588 0.29332143 -0.7899012 -0.1403238
000040 07 ca 13 3c 79 a9 0f bf 79 ff 66 3d 84 4a 09 bd
       0.009020335 -0.5611797 0.05639598 -0.03351833
000050 c2 d8 62 be b8 1a 1e bd 8f 7d d6 bd e8 28 2e 3e
       -0.22152999 -0.0385997 -0.10473167 0.17007792
000060 82 39 99 3e 13 7f 48 bd 1b 37 53 3e 11 4d ee 3d
       0.29926687 -0.048949312 0.2062649 0.11635793
000070 da 58 8c be be 8b 54 3e 94 09 2c 3e 6c d0 57 3c
       -0.27411538 0.20756432 0.16800529 0.01317225
000080 75 5c 6d 3d ab 31 3a be 25 15 e4 3d 59 43 0b 3e
       0.057949502 -0.1818301 0.111368455 0.1359991
000090 16 4e 3c be 4f 89 be be fe 38 ad 3c d3 5d 8b 3d
       -0.18389162 -0.37214133 0.02114534 0.06805005
0000a0 7b 72 d4 bd e6 a9 ad 3e 16 f9 6a bc 44 2f 77 be
       -0.10373398 0.33918685 -0.014341613 -0.24139124
0000b0 39 72 5f 3e 54 e5 f5 3c 57 be 33 bf 94 40 49 3d
       0.21820916 0.030016579 -0.7021231 0.049133852
0000c0 8f b3 c9 bd 6e 9a 80 3e f2 d7 98 3e e6 24 ad 3b
       -0.09848701 0.2511782 0.29852253 0.0052839397
0000d0 bc c1 20 bd dd 54 46 3e 68 d6 bc bd 9e ba 47 3e
       -0.03924726 0.1936831 -0.09220582 0.19504783
0000e0 d0 9c 58 be 51 42 82 be b9 4f 80 3c 43 48 a0 3e
       -0.21153569 -0.2544122 0.015663015 0.3130513
0000f0 cd a8 cb 3e d4 3f c4 3d df 07 ab be cf c5 ee 3d
       0.39777222 0.09582487 -0.33404443 0.11658823
000100 a4 2d b8 be 9b be 10 bf f9 14 cc be 43 b3 53 3d
       -0.3597232 -0.5654084 -0.3985975 0.05168463
000110 84 d5 c9 bd 93 24 a1 be 5a 5a d2 bd 8a 6c a3 be
       -0.09855178 -0.31473216 -0.102711394 -0.31918746
000120 a2 38 79 be 2c fc 1a 3e 0e dc 1e 3e 82 9b 15 bf
       -0.2433801 0.15135258 0.15513632 -0.5844041
000130 7f c6 9a be fd 08 14 bc 4c 70 ab 3e 6a 6f 18 be
       -0.30229566 -0.009035346 0.33484113 -0.14886251
000140 b2 f0 6b bd 81 b4 4a bd 3a c4 26 be 5d d5 d9 3e
       -0.05760259 -0.04948855 -0.16285792 0.42545596
000150 45 a5 50 bc e0 89 7d be 10 b3 a3 be 52 f3 81 bd
       -0.012734716 -0.24759626 -0.3197255 -0.06345238
000160 2b 33 21 3e c4 04 9a 3e eb 59 7b bd ac 0a 0c be
       0.15742175 0.3008176 -0.06136505 -0.13675946
000170 b0 60 db bd 10 1e 2d 3b 3c d2 67 3e 7f fa 4b be
       -0.10711801 0.0026415624 0.22638792 -0.19919775
000180 65 37 db 3d 16 29 43 be cc a2 66 3e 81 f4 20 be
       0.10703925 -0.19058642 0.2252304 -0.15718271
000190 4d cf 53 be 98 58 e2 be 3e 1a 9c be e8 bc bf be
       -0.20684548 -0.44208217 -0.3048877 -0.37448812
0001a0 8e 62 25 3d 38 81 34 3e 4e 80 b1 bd e8 3c 1c 3f
       0.040377192 0.17627418 -0.0866705 0.61030436
0001b0 5d 04 9a be ed 8c bb be 69 d4 2f bf a6 22 1e 3d
       -0.30081454 -0.36630955 -0.6868349 0.038607262
0001c0 91 24 97 be 83 9f c9 bd 7f 8d a3 bd 6e 6a 0e bd
       -0.29520085 -0.098448776 -0.079859726 -0.034769468
0001d0 8f 91 83 3e bd 80 5c 3d 18 5d 92 bc b5 40 09 be
       0.2569699 0.053833712 -0.017866656 -0.1340359
0001e0 7f 4b 49 be 6e de 3c 3e b8 44 13 bd 3c 61 ec 3c
       -0.19657706 0.18444225 -0.035954207 0.028854959
0001f0 e4 7f 10 3e e2 12 a1 be f8 17 d0 bd b5 c3 6b be
       0.14111286 -0.3145972 -0.10160822 -0.23023875
000200 ea be 8c 3d 15 01 2c be d1 11 83 3d cc 95 8b 3e
       0.068723515 -0.16797288 0.063998826 0.27262723
000210 26 18 d3 bd 6f 68 a8 3d a9 31 f5 3d f4 75 76 3e
       -0.1030734 0.08223044 0.119723625 0.24068433
000220 49 49 51 3e 8e 19 b3 bd 81 91 96 3e 49 11 69 bd
       0.20438112 -0.087451085 0.29407886 -0.05690125
000230 42 65 45 bd ae 0f f8 3d 41 b4 fa 3d e6 56 5b 3a
       -0.04819227 0.12112366 0.12241412 0.0008367136
000240 aa c2 14 be 08 12 31 3e 29 7f 84 3e 53 3f 9a 3e
       -0.14527383 0.17292035 0.25878266 0.30126438
000250 92 02 87 be 46 b5 3e be c0 9f 30 3d 99 3c 41 3d
       -0.26369148 -0.18623838 0.0431211 0.04717693
000260 fb c5 31 3e d8 e6 c8 3e 63 c4 81 be b6 f2 f6 be
       0.1736068 0.3923862 -0.25345144 -0.4823205
000270 54 ec 5e be 7e 23 bf be 62 5d 9f 3d 48 a8 1a be
       -0.2176984 -0.37331766 0.07781483 -0.15103257
000280 3c aa 98 be 79 a9 65 bd 2c 10 ca 3b 3b f4 02 be
       -0.2981738 -0.056069825 0.0061664786 -0.12788479
000290 02 d8 8f bd 82 d1 84 be 7b ed 08 be 37 dd 6b be
       -0.07023622 -0.25941092 -0.13371842 -0.23033606
0002a0 3c fe 47 3e d4 b1 86 3e e3 12 ba be 53 60 5a 3e
       0.19530576 0.26307547 -0.36342534 0.21325807
0002b0 0a e7 c8 3e bd 08 96 be a1 28 0c bf b4 21 a9 3e
       0.3923877 -0.29303542 -0.54749495 0.33033526
0002c0 fb 37 3f bf 7a b1 f1 3d 8f 02 23 3e 4c 0b af bf
       -0.74694794 0.11801429 0.15918945 -1.3675323
0002d0 10 3e 7b 3e 19 14 23 3e 24 3a 1e 3d c6 71 e6 be
       0.24535394 0.15925635 0.038629666 -0.45008677
0002e0 8a d4 95 3e 3f 57 cd 3d 6c 80 6d 3e ad 4c c5 be
       0.29263717 0.100264065 0.2319352 -0.3853506
0002f0 25 ed 1a 3d 43 cc 87 be 42 1c c2 3d fe 55 ab bd
       0.037823815 -0.26523027 0.09478046 -0.08366011
000300 2b 0b 14 bd e0 9d a0 be 0a 64 09 3e e0 c8 98 be
       -0.036143463 -0.3137045 0.13417068 -0.29840755
000310 29 69 44 3e 53 ea 5c bd 62 39 82 be 91 0f 03 bc
       0.1918074 -0.053934406 -0.25434405 -0.007999317
000320 87 f8 d2 be 5d f0 05 3e ce 23 27 3e c8 94 3f bd
       -0.41205236 0.13079973 0.16322252 -0.04677275
000330 0c f4 37 be 6d 10 0b be 76 5e fe be 0a 33 94 be
       -0.1796419 -0.13580485 -0.49681443 -0.2894519
000340 07 df b1 3f d3 4c 9f bd 54 9c b5 be 91 bd d9 bd
       1.3896188 -0.07778325 -0.3547083 -0.1063186
000350 4b 3d 81 3b 0b f1 04 be be 41 2c 3e 24 79 53 3e
       0.0039440743 -0.12982576 0.16821954 0.2065168
000360 25 15 99 3e 14 02 ae 3e 7e 2d 26 bc 40 f1 cb be
       0.29898944 0.3398596 -0.010142682 -0.39832497
000370 da e1 33 3e 31 44 e3 bd e8 d1 96 3e ed b4 14 3d
       0.17566624 -0.11096991 0.2945702 0.036305357
000380 2f d2 c2 be 72 59 20 be 7f 10 71 3d d4 be 2f be
       -0.38050982 -0.1565912 0.058853623 -0.17162639
000390 33 58 e7 bc d2 3f 88 3b fb 63 ec bc e5 65 4c bd
       -0.028240299 0.0041579986 -0.028856268 -0.04990186
0003a0 30 51 67 3d a5 63 a5 be b9 0a c2 3e aa 26 13 3a
       0.05647391 -0.32302585 0.37898806 0.00056133664
0003b0 41 5a 16 be 3c 0f e6 bd 76 0f 94 3f d9 42 e5 3e
       -0.14682867 -0.112333745 1.1567218 0.44777563
0003c0 e8 fb 0a bf 64 67 b0 bd 2b a2 6b be 0a fa 84 3e
       -0.5429063 -0.0861347 -0.23011081 0.25972015
0003d0 37 c0 2b be 5f bc d3 be af c0 8f be 08 7d 2e be
       -0.16772543 -0.41354653 -0.28076693 -0.17039883
0003e0 8a 30 3a 3e ed df 70 be 34 19 46 3e 07 dc 83 be
       0.18182579 -0.23522921 0.19345552 -0.25753805
0003f0 b7 d2 07 3e 81 cf f2 3c 9e 3d 88 3e 36 f4 5a 3d
       0.13263975 0.029639961 0.2660951 0.053455554

sequential/dense_3/MatMul f4 [8, 16]
000000 79 0f ef be bb 4e b9 be e0 10 06 3f 1e 6b 84 be
       -0.46691492 -0.3619288 0.523695 -0.25862974
000010 40 c7 9b be 28 98 81 bd a8 38 84 be 71 30 ef be
       -0.30425453 -0.063278496 -0.25824475 -0.46716645
000020 3b a1 3b bc 0e ad ee be aa 8c b4 3e 1b 3e 9f 3e
       -0.011452015 -0.46616405 0.35263568 0.3110207
000030 1f 74 3e be 26 2a ca 3e 2c 49 84 be bc ac 8e 3d
       -0.18598984 0.39485282 -0.25837076 0.0696654
000040 dc f2 da 3e ba a6 73 3e 78 5f 6f 3a 49 29 0f bf
       0.42763412 0.2379407 0.00091313524 -0.5592237
000050 9f eb 91 be 80 43 b8 3e 70 f3 98 3e 94 5c fd bd
       -0.28500077 0.35988998 0.29873228 -0.123711735
000060 d5 51 c7 3e 13 1c cc 3e e7 4b 06 be 1c 5d 59 3e
       0.3892962 0.3986517 -0.13114892 0.21226925
000070 d0 8e f1 bd e3 b1 93 be eb aa 5d 3e 23 6c 76 bd
       -0.117948174 -0.28846654 0.21647231 -0.06016172
000080 89 d4 81 3d 54 58 2a 3e 9c a4 de be cb 47 29 bd
       0.06339366 0.16635257 -0.43484962 -0.041328233
000090 93 15 4b 3e ee de 27 3e 3d 17 70 be e6 9a 1e be
       0.19832449 0.16393635 -0.23446365 -0.15488777
0000a0 44 a4 ec 3d 9d c2 6f 3e c9 0f 93 be 54 20 ed be
       0.11554769 0.23414083 -0.2872298 -0.46313727
0000b0 63 8e 15 3f a2 3b 47 3e 21 5a cf 3e 4c 86 c4 3e
       0.5842039 0.19456342 0.4049845 0.3838371
0000c0 a9 d5 91 3e 31 b9 00 be 65 8c 99 be f8 62 2a 3f
       0.28483322 -0.12570645 -0.29989925 0.66557264
0000d0 1c 8a 52 be 1d 48 3a 3e bc 5c fc 3d f6 e2 84 3c
       -0.20560497 0.18191572 0.12322375 0.016221505
0000e0 6d 82 56 be 68 d4 c6 bd 29 f0 99 3e 7b f4 27 be
       -0.20948191 -0.09708482 0.3006604 -0.16401856
0000f0 0a 25 f4 be d9 d1 89 be 9e fb cf be 5f 65 c7 bc
       -0.4768451 -0.26917914 -0.40621656 -0.02434033
000100 68 b3 8c be ef 8a 7a 3d f1 5f 38 3f 0c e5 1c be
       -0.27480626 0.061167654 0.72021395 -0.1532175
000110 af 12 04 bf 1b 87 7c 3e 82 82 3f 3d 8f 99 98 be
       -0.5159101 0.24660914 0.04675532 -0.29804656
000120 07 39 fd bd ad 51 fd be ba 34 d1 be 3f 07 d7 bd
       -0.12364393 -0.49476376 -0.4086054 -0.10499429
000130 f7 c7 45 3f f1 09 01 be 20 19 a8 3f e1 29 ac 3c
       0.7725825 -0.12601449 1.3132668 0.021016063
000140 06 c8 2e be 46 59 8f 3e 54 ae 8a be a5 a2 52 3b
       -0.1706849 0.27997798 -0.27086127 0.00321404
000150 0d a4 a5 3e bc 53 39 be f6 f2 50 3e 5a 4d db be
       0.32351723 -0.18098348 0.20405182 -0.42832452
000160 1d 2b 05 be 33 e9 94 3e a6 5a e1 3e 79 4b bf 3e
       -0.13004728 0.29084167 0.44014472 0.3736227
000170 d7 f3 a3 3e c4 b1 81 be 39 e8 3c be 0a 3b fa bd
       0.32021973 -0.25330937 -0.18447961 -0.12218292
000180 e0 ee de bd 03 5a 69 3f a0 d3 56 bf 9f 79 2c 3e
       -0.108854055 0.9115297 -0.83916664 0.1684327
000190 c8 5a 4b 3f bf f5 23 3d 88 79 55 3d 41 20 05 bf
       0.79435396 0.040029284 0.052117854 -0.5200234
0001a0 97 77 44 3f 8b 36 6d bf b2 28 13 3f 6a 6e 06 3e
       0.7674498 -0.9266135 0.5748397 0.13128057
0001b0 7c 16 80 bd fb aa 0f c0 7e a0 a1 be 69 7c 77 be
       -0.062542886 -2.2448108 -0.31567758 -0.24168552
0001c0 75 79 66 bd 26 c7 b1 3e 2f 59 63 bf f1 f6 86 3e
       -0.056268174 0.3472225 -0.8880796 0.26360276
0001d0 e1 68 3d 3e fd 1e 8b be 4b 73 65 be c9 f5 4b be
       0.1849704 -0.2717208 -0.22407262 -0.19917978
0001e0 3c 0c 48 be 62 6c 30 3e c0 29 8b 3d 13 bb 06 3f
       -0.19535917 0.17228845 0.067950726 0.526292
0001f0 b2 67 6d 3e 70 6c 0f 3e f5 49 3d 3f a3 82 28 be
       0.23184088 0.1400621 0.73940974 -0.16456084

sequential/dense_4/MatMul f4 [3, 8]
000000 6b ec 0f bf 5c 9a 00 be 0c 0a a7 3e ad e9 11 3e
       -0.5622012 -0.12558883 0.32624853 0.14249296
000010 e4 b9 07 be 44 1f fe bd 85 bb 88 bd 3d 86 eb bd
       -0.13254505 -0.12408307 -0.066763915 -0.11500213
000020 6c 41 9d be 7b 4e 3a be f0 6c 2f 3d 7b 57 7c be
       -0.30713975 -0.18194 0.0428285 -0.24642746
000030 79 f9 92 bd cd 1e 63 3e 36 9a 92 3e 2c 45 c0 3e
       -0.071764894 0.22179718 0.2863328 0.37552774
000040 02 d0 67 be e2 2e 28 3f da 0b 46 3f 10 66 4f 3f
       -0.22637942 0.6569654 0.77361834 0.8101511
000050 31 6e 1b bf f1 8f 04 3f f6 ce b1 3f d4 09 32 3f
       -0.60715014 0.5178214 1.3891284 0.69546247
