src/lib/libtf/models/pitch_quant.tflite (tflite, 12080 bytes, 4 tensors)

sequential/dense/MatMul i1 [128, 36] scale=0.01727417 zero_point=0
0.10364501 0.08637085 0.0 0.03454834 0.03454834 0.10364501 0.19001587 -0.051822506
0.2245642 -0.08637085 -0.08637085 0.24183837 0.1727417 0.19001587 0.10364501 -0.10364501
0.06909668 0.10364501 0.13819335 0.06909668 0.08637085 -0.03454834 0.13819335 -0.08637085
0.12091918 0.32820922 0.08637085 0.20729002 0.0 0.19001587 -0.03454834 0.29366088
-0.20729002 0.03454834 -0.10364501 -0.20729002 0.15546753 -0.06909668 -0.051822506 0.3454834
0.15546753 -0.19001587 0.1727417 0.25911254 0.48367673 -0.12091918 0.01727417 0.0
0.50095093 0.03454834 0.10364501 0.43185422 0.2763867 -0.24183837 -0.13819335 -0.10364501
-0.2763867 -0.03454834 -0.19001587 -0.1727417 0.20729002 0.10364501 -0.06909668 -0.29366088
0.06909668 0.10364501 0.10364501 -0.31093505 -0.12091918 -0.24183837 0.06909668 0.0
-0.051822506 -0.06909668 -0.10364501 -0.03454834 0.1727417 -0.051822506 -0.051822506 0.08637085
-0.03454834 -0.08637085 -0.06909668 0.051822506 0.2763867 -0.06909668 0.13819335 0.08637085
0.10364501 -0.051822506 -0.12091918 -0.1727417 -0.15546753 -0.1727417 0.03454834 0.13819335
0.15546753 -0.20729002 -0.24183837 0.10364501 0.13819335 -0.01727417 0.06909668 -0.06909668
-0.12091918 -0.10364501 -0.12091918 -0.051822506 0.10364501 0.15546753 -0.12091918 -0.08637085
0.0 -0.13819335 0.051822506 -0.08637085 -0.13819335 -0.06909668 -0.08637085 -0.051822506
0.12091918 0.06909668 0.2245642 0.31093505 -0.051822506 -0.19001587 0.051822506 0.2245642
-0.10364501 0.051822506 -0.1727417 0.01727417 0.06909668 0.10364501 0.01727417 -0.13819335
0.15546753 0.03454834 0.0 -0.20729002 0.06909668 -0.10364501 -0.01727417 0.24183837
-0.03454834 -0.03454834 0.08637085 -0.08637085 0.15546753 -0.03454834 0.15546753 -0.15546753
-0.051822506 0.20729002 0.15546753 0.12091918 0.01727417 -0.1727417 -0.051822506 -0.051822506
0.03454834 0.19001587 -0.08637085 0.0 0.0 -0.2245642 0.01727417 -0.01727417
0.10364501 -0.10364501 -0.1727417 -0.15546753 0.01727417 0.10364501 0.12091918 0.2245642
-0.06909668 -0.03454834 -0.10364501 0.10364501 0.12091918 0.15546753 0.12091918 -0.01727417
0.24183837 0.13819335 -0.03454834 -0.20729002 0.051822506 0.25911254 0.20729002 -0.08637085
-0.08637085 0.10364501 0.15546753 0.25911254 0.13819335 0.19001587 0.06909668 0.13819335
-0.08637085 -0.01727417 0.15546753 0.3973059 -0.1727417 -0.01727417 -0.36275756 0.08637085
0.25911254 0.65641844 -0.31093505 0.20729002 -0.5182251 -0.12091918 -1.1055468 0.20729002
0.15546753 0.12091918 -0.051822506 0.03454834 0.13819335 0.01727417 0.0 -0.051822506
0.19001587 -0.06909668 -0.06909668 0.08637085 -0.06909668 -0.13819335 0.06909668 0.19001587
-0.10364501 0.1727417 -0.01727417 0.08637085 -0.06909668 0.051822506 -0.1727417 0.20729002
-0.051822506 0.01727417 -0.25911254 0.01727417 -0.31093505 0.20729002 -0.10364501 -0.06909668
-0.2245642 0.01727417 -0.2245642 -0.25911254 0.19001587 0.3973059 0.01727417 0.051822506
00000000: 0605 0002 0206 0bfd 0dfb fb0e 0a0b 06fa
00000010: 0406 0804 05fe 08fb 0713 050c 000b fe11
00000020: f402 faf4 09fc fd14 09f5 0a0f 1cf9 0100
00000030: 1d02 0619 10f2 f8fa f0fe f5f6 0c06 fcef
00000040: 0406 06ee f9f2 0400 fdfc fafe 0afd fd05
00000050: fefb fc03 10fc 0805 06fd f9f6 f7f6 0208
00000060: 09f4 f206 08ff 04fc f9fa f9fd 0609 f9fb
00000070: 00f8 03fb f8fc fbfd 0704 0d12 fdf5 030d
00000080: fa03 f601 0406 01f8 0902 00f4 04fa ff0e
00000090: fefe 05fb 09fe 09f7 fd0c 0907 01f6 fdfd
000000a0: 020b fb00 00f3 01ff 06fa f6f7 0106 070d
000000b0: fcfe fa06 0709 07ff 0e08 fef4 030f 0cfb
000000c0: fb06 090f 080b 0408 fbff 0917 f6ff eb05
000000d0: 0f26 ee0c e2f9 c00c 0907 fd02 0801 00fd
000000e0: 0bfc fc05 fcf8 040b fa0a ff05 fc03 f60c
000000f0: fd01 f101 ee0c fafc f301 f3f1 0b17 0103

sequential/dense_1/MatMul i1 [32, 128] scale=0.0147953285 zero_point=0
-0.17754394 0.19233927 -0.0147953285 -0.25152057 0.044385985 -0.11836263 -0.16274862 -0.08877197
0.13315795 -0.029590657 0.13315795 -0.044385985 -0.34029254 -0.28111124 0.08877197 -0.08877197
-0.07397664 -0.34029254 -0.14795329 0.059181314 -0.2071346 0.11836263 0.17754394 -0.29590657
-0.07397664 -0.14795329 -0.16274862 -0.1035673 -0.11836263 0.11836263 -0.28111124 -0.029590657
-0.19233927 -0.29590657 0.0147953285 -0.39947388 0.07397664 -0.0147953285 0.08877197 -0.22192992
-0.39947388 -0.11836263 -0.17754394 -0.19233927 0.11836263 -0.13315795 -0.0147953285 -0.059181314
0.13315795 0.19233927 -0.13315795 -0.13315795 0.13315795 0.029590657 -0.029590657 -0.16274862
-0.07397664 -0.39947388 -0.1035673 -0.17754394 -0.059181314 -0.044385985 0.17754394 -0.17754394
0.08877197 -0.1035673 -0.29590657 -0.3698832 0.07397664 -0.11836263 0.08877197 -0.29590657
-0.14795329 0.07397664 0.13315795 0.044385985 -0.32549724 -0.08877197 -0.39947388 -0.2663159
-0.044385985 0.16274862 0.16274862 0.044385985 -0.11836263 -0.19233927 -0.35508788 -0.2071346
0.08877197 -0.0147953285 -0.11836263 -0.029590657 -0.0147953285 -0.38467854 0.1035673 0.0
-0.13315795 -0.2071346 0.08877197 -0.08877197 -0.16274862 0.044385985 -0.14795329 -0.16274862
-0.32549724 0.059181314 -0.08877197 -0.059181314 -0.23672526 0.0 0.14795329 -0.1035673
0.044385985 -0.25152057 -0.11836263 -0.13315795 -0.35508788 0.11836263 -0.029590657 -0.32549724
0.0147953285 -0.17754394 -0.14795329 -0.11836263 -0.0147953285 -0.029590657 -0.0147953285 -0.19233927
-0.45865518 -0.07397664 -0.08877197 -0.044385985 -0.22192992 0.0 -0.11836263 0.25152057
0.029590657 -0.14795329 -0.1035673 -0.044385985 0.32549724 0.029590657 -0.044385985 -0.7249711
0.044385985 -0.16274862 0.1035673 -0.2663159 -0.13315795 0.08877197 0.044385985 -0.29590657
-0.1035673 -0.044385985 -0.16274862 0.16274862 0.044385985 0.08877197 -0.11836263 -0.2663159
0.17754394 -0.29590657 0.059181314 0.17754394 -0.059181314 0.059181314 0.17754394 -0.1035673
-0.13315795 -0.044385985 0.08877197 0.059181314 0.14795329 -0.16274862 0.0147953285 -0.059181314
-0.19233927 0.17754394 0.14795329 0.1035673 -0.38467854 -0.029590657 -0.8877197 -0.22192992
-0.14795329 -0.2663159 0.11836263 -0.059181314 -0.059181314 -0.16274862 -0.059181314 -0.17754394
-0.13315795 0.0 -0.1035673 0.0 0.1035673 -0.11836263 0.029590657 -0.19233927
0.0 0.1035673 0.1035673 0.029590657 -0.044385985 0.16274862 -0.2071346 -0.16274862
0.0147953285 0.2071346 -0.0147953285 -0.07397664 0.059181314 -0.059181314 0.1035673 0.08877197
0.1035673 0.029590657 -0.14795329 -0.11836263 -0.13315795 -0.044385985 -0.22192992 -0.08877197
-0.07397664 0.1035673 -0.07397664 -0.13315795 0.059181314 0.0 0.17754394 -0.029590657
0.029590657 -0.16274862 0.059181314 0.0147953285 -0.11836263 0.029590657 -0.08877197 -0.38467854
-0.17754394 0.90251505 0.23672526 -0.23672526 -0.08877197 0.17754394 -0.22192992 -0.059181314
0.059181314 -0.0147953285 -0.16274862 -0.08877197 0.13315795 0.14795329 0.0147953285 0.23672526
00000000: f40d ffef 03f8 f5fa 09fe 09fd e9ed 06fa
00000010: fbe9 f604 f208 0cec fbf6 f5f9 f808 edfe
00000020: f3ec 01e5 05ff 06f1 e5f8 f4f3 08f7 fffc
00000030: 090d f7f7 0902 fef5 fbe5 f9f4 fcfd 0cf4
00000040: 06f9 ece7 05f8 06ec f605 0903 eafa e5ee
00000050: fd0b 0b03 f8f3 e8f2 06ff f8fe ffe6 0700
00000060: f7f2 06fa f503 f6f5 ea04 fafc f000 0af9
00000070: 03ef f8f7 e808 feea 01f4 f6f8 fffe fff3
00000080: e1fb fafd f100 f811 02f6 f9fd 1602 fdcf
00000090: 03f5 07ee f706 03ec f9fd f50b 0306 f8ee
000000a0: 0cec 040c fc04 0cf9 f7fd 0604 0af5 01fc
000000b0: f30c 0a07 e6fe c4f1 f6ee 08fc fcf5 fcf4
000000c0: f700 f900 07f8 02f3 0007 0702 fd0b f2f5
000000d0: 010e fffb 04fc 0706 0702 f6f8 f7fd f1fa
000000e0: fb07 fbf7 0400 0cfe 02f5 0401 f802 fae6
000000f0: f43d 10f0 fa0c f1fc 04ff f5fa 090a 0110

sequential/dense_2/MatMul i1 [8, 32] scale=0.006035601 zero_point=0
0.012071202 -0.13881882 -0.44663447 0.24745964 -0.13881882 -0.33799365 -0.38024285 0.048284806
-0.39231405 0.18106802 -0.39231405 0.31385124 -0.24142402 -0.42852765 -0.16899683 0.13278322
-0.09053401 -0.018106803 -0.24142402 -0.48888367 0.054320406 -0.38627845 -0.27763763 0.30178005
0.28970885 -0.18106802 -0.28367323 -0.054320406 -0.018106803 -0.33195806 0.33195806 -0.31988683
-0.054320406 -0.39834964 0.41042086 -0.33195806 -0.08449841 -0.12674762 -0.31988683 0.46474126
0.38627845 0.054320406 -0.29574445 0.042249206 -0.030178003 0.42852765 -0.5733821 0.6277025
0.35006484 -0.28367323 0.26556644 -0.27763763 -0.024142403 0.24745964 0.26556644 0.042249206
0.09656961 -0.060356006 0.13881882 -0.21124603 0.30178005 -0.35610044 0.09656961 0.29574445
-0.32592243 -0.30178005 -0.102605216 0.102605216 -0.25953084 0.45870566 0.07242721 -0.22935283
-0.41645646 -0.18106802 -0.22935283 0.09656961 -0.048284806 -0.09053401 -0.30178005 -0.42249206
0.13278322 -0.22331724 0.15089002 -0.06639161 -0.19917482 0.25349525 -0.23538843 0.14485443
-0.19313923 0.35006484 -0.07242721 -0.28970885 0.042249206 0.26556644 -0.054320406 -0.018106803
-0.15089002 0.15692562 0.16899683 -0.24142402 -0.030178003 0.31385124 0.048284806 -0.19313923
-0.35610044 0.018106803 -0.16899683 0.25349525 -0.16899683 0.38024285 -0.12674762 0.42852765
-0.018106803 -0.14485443 0.42249206 0.09053401 0.5613109 -0.33799365 0.17503242 0.30781564
-0.030178003 -0.15692562 -0.12071201 -0.042249206 0.49491927 0.16899683 0.16296121 -0.08449841
-0.07846281 -0.23538843 -0.25349525 0.31385124 0.23538843 0.19917482 -0.012071202 0.102605216
-0.23538843 -0.39231405 -0.44059885 -0.24745964 -0.35006484 -0.09053401 0.16899683 -0.114676416
-0.38024285 -0.19917482 -0.25953084 -0.46474126 0.19313923 0.102605216 0.25953084 -0.42852765
-0.10864081 -0.42249206 -0.38627845 -0.42249206 0.09053401 -0.17503242 0.27763763 0.09053401
0.09656961 -0.19917482 -0.65184486 -0.19313923 -0.7423789 -0.27160203 -0.012071202 -0.36817166
0.68202287 0.024142403 0.13881882 -0.31988683 0.30781564 -0.6699517 0.06639161 0.102605216
-0.09656961 0.27160203 -0.37420726 -0.13881882 0.054320406 -0.34402925 0.08449841 -0.5914889
0.006035601 0.13278322 0.36213604 -0.22935283 -0.07846281 0.08449841 -0.16296121 0.012071202
-0.006035601 -0.22331724 0.060356006 -0.42249206 0.17503242 -0.024142403 0.27160203 0.5854533
-0.24745964 -0.12674762 0.44663447 -0.6458093 0.102605216 0.7665213 0.16296121 0.054320406
0.24745964 0.27160203 -0.29574445 -0.28970885 -0.15089002 -0.08449841 0.006035601 -0.43456325
0.13881882 0.28970885 0.30178005 -0.018106803 -0.56734645 -0.36817166 -0.28367323 -0.23538843
-0.018106803 -0.114676416 -0.36817166 0.31385124 -0.46474126 0.28367323 -0.24745964 0.25953084
-0.08449841 0.19917482 -0.51302606 -0.17503242 -0.29574445 -0.47077686 -0.20521043 0.37420726
0.16296121 -0.30781564 -0.13278322 -0.10864081 -0.19917482 0.036213607 0.21124603 0.09053401
-0.48888367 0.07242721 -0.054320406 -0.20521043 0.28367323 0.030178003 -0.29574445 0.16296121
00000000: 02e9 b629 e9c8 c108 bf1e bf34 d8b9 e416
00000010: f1fd d8af 09c0 d232 30e2 d1f7 fdc9 37cb
00000020: f7be 44c9 f2eb cb4d 4009 cf07 fb47 a168
00000030: 3ad1 2cd2 fc29 2c07 10f6 17dd 32c5 1031
00000040: cace ef11 d54c 0cda bbe2 da10 f8f1 ceba
00000050: 16db 19f5 df2a d918 e03a f4d0 072c f7fd
00000060: e71a 1cd8 fb34 08e0 c503 e42a e43f eb47
00000070: fde8 460f 5dc8 1d33 fbe6 ecf9 521c 1bf2
00000080: f3d9 d634 2721 fe11 d9bf b7d7 c6f1 1ced
00000090: c1df d5b3 2011 2bb9 eeba c0ba 0fe3 2e0f
000000a0: 10df 94e0 85d3 fec3 7104 17cb 3391 0b11
000000b0: f02d c2e9 09c7 0e9e 0116 3cda f30e e502
000000c0: ffdb 0aba 1dfc 2d61 d7eb 4a95 117f 1b09
000000d0: 292d cfd0 e7f2 01b8 1730 32fd a2c3 d1d9
000000e0: fded c334 b32f d72b f221 abe3 cfb2 de3e
000000f0: 1bcd eaee df06 230f af0c f7de 2f05 cf1b

sequential/dense_3/MatMul i1 [1, 8] scale=0.0055706236 zero_point=0
0.70746917 -0.46236175 -0.27853116 -0.44007927 0.011141247 -0.22282495 0.22839557 0.03342374
00000000: 7fad ceb1 02d8 2906
