src/lib/libtf/models/roll_quant.tflite (tflite, 7472 bytes, 4 tensors)

sequential/dense/MatMul i1 [64, 36] scale=0.005930979 zero_point=0
0.100826636 0.17792937 0.04151685 -0.071171746 -0.088964686 0.07710272 0.23130818 -0.23723915
0.18979132 0.1126886 0.017792936 -0.23130818 0.21944621 -0.17199838 -0.118619576 0.10675762
0.05337881 -0.15420544 -0.14234349 0.21351524 -0.20165327 -0.16013643 -0.0830337 0.029654894
-0.06524077 0.0 0.14827447 -0.100826636 -0.12455055 0.20165327 0.14827447 -0.06524077
-0.0830337 0.09489566 -0.17792937 -0.04151685 0.04744783 -0.0830337 0.24317013 -0.13641252
0.04744783 0.06524077 0.04151685 -0.035585873 -0.1126886 -0.1660674 0.3677207 0.005930979
-0.035585873 -0.1957223 0.5337881 -0.1126886 0.3380658 0.24317013 -0.04151685 0.071171746
-0.12455055 -0.035585873 0.0830337 0.088964686 -0.088964686 0.05337881 -0.38551363 -0.26689404
0.15420544 0.18386035 -0.3380658 -0.09489566 0.035585873 -0.035585873 -0.29654893 0.011861958
0.1660674 0.17792937 0.017792936 0.0 0.20165327 -0.029654894 0.05337881 0.14234349
-0.088964686 -0.011861958 -0.13048154 -0.21944621 -0.26096308 -0.3321348 -0.46261635 0.17199838
-0.28468698 0.16013643 -0.21944621 0.023723915 -0.10675762 0.1126886 -0.2491011 0.13641252
-0.15420544 -0.2491011 -0.3677207 0.0830337 0.07710272 0.29061797 -0.32027286 -0.15420544
-0.07710272 -0.07710272 -0.2253772 -0.1957223 0.557512 -0.14827447 0.21351524 -0.14234349
0.17792937 -0.5278571 -0.28468698 0.0 -0.04744783 -0.13048154 -0.40330654 -0.40923753
-0.24317013 -0.14234349 -0.21351524 -0.10675762 0.05337881 -0.2550321 -0.31434187 -0.43296146
-0.40923753 0.011861958 -0.14234349 -0.059309788 -0.023723915 -0.32027286 -0.23723915 -0.43889242
-0.04151685 0.09489566 -0.023723915 -0.21351524 -0.41516852 -0.30841088 -0.04744783 -0.2491011
-0.14234349 0.005930979 0.071171746 0.0830337 0.029654894 0.088964686 0.15420544 0.088964686
-0.18386035 -0.100826636 -0.17199838 0.05337881 -0.017792936 -0.13641252 0.14234349 0.21351524
0.05337881 0.07710272 -0.18979132 -0.13048154 -0.035585873 -0.04151685 -0.20758426 -0.059309788
0.09489566 0.12455055 -0.06524077 0.011861958 -0.24317013 -0.12455055 0.13641252 0.18386035
-0.29061797 -0.23723915 -0.005930979 -0.26096308 0.06524077 0.29061797 0.16013643 -0.1660674
-0.011861958 -0.3380658 -0.035585873 -0.13048154 -0.029654894 -0.0830337 -0.17792937 -0.16013643
-0.17792937 -0.09489566 0.12455055 0.017792936 0.37958264 0.1126886 -0.100826636 0.26096308
0.20758426 0.011861958 0.2550321 -0.14827447 -0.1126886 -0.14827447 -0.26096308 0.059309788
0.118619576 0.14234349 0.21944621 0.30247992 -0.13641252 0.16013643 -0.088964686 -0.029654894
0.017792936 -0.20165327 -0.13048154 -0.20165327 0.18979132 -0.100826636 0.17792937 0.04151685
-0.1957223 0.017792936 -0.09489566 0.07710272 -0.17792937 -0.40330654 0.2253772 0.05337881
-0.14827447 0.12455055 -0.18386035 0.029654894 0.100826636 -0.18979132 0.16013643 0.059309788
0.0830337 -0.059309788 -0.6108908 0.1126886 0.30841088 0.5278571 -0.118619576 -0.41516852
0.0 0.088964686 0.06524077 -0.13641252 0.04744783 -0.18386035 0.071171746 0.23723915
00000000: 111e 07f4 f10d 27d8 2013 03d9 25e3 ec12
00000010: 09e6 e824 dee5 f205 f500 19ef eb22 19f5
00000020: f210 e2f9 08f2 29e9 080b 07fa ede4 3e01
00000030: fadf 5aed 3929 f90c ebfa 0e0f f109 bfd3
00000040: 1a1f c7f0 06fa ce02 1c1e 0300 22fb 0918
00000050: f1fe eadb d4c8 b21d d01b db04 ee13 d617
00000060: e6d6 c20e 0d31 cae6 f3f3 dadf 5ee7 24e8
00000070: 1ea7 d000 f8ea bcbb d7e8 dcee 09d5 cbb7
00000080: bb02 e8f6 fcca d8b6 f910 fcdc bacc f8d6
00000090: e801 0c0e 050f 1a0f e1ef e309 fde9 1824
000000a0: 090d e0ea faf9 ddf6 1015 f502 d7eb 171f
000000b0: cfd8 ffd4 0b31 1be4 fec7 faea fbf2 e2e5
000000c0: e2f0 1503 4013 ef2c 2302 2be7 ede7 d40a
000000d0: 1418 2533 e91b f1fb 03de eade 20ef 1e07
000000e0: df03 f00d e2bc 2609 e715 e105 11e0 1b0a
000000f0: 0ef6 9913 3459 ecba 000f 0be9 08e1 0c28

sequential/dense_1/MatMul i1 [32, 64] scale=0.008789899 zero_point=0
-0.026369696 -0.28127676 -0.21095757 -0.14942828 0.026369696 0.105478786 0.07031919 0.11426868
0.087898985 -0.18458788 0.035159595 0.14942828 -0.026369696 0.043949492 -0.29006666 -0.105478786
-0.29885656 -0.09668889 -0.19337778 -0.13184848 -0.23732726 -0.07910909 -0.043949492 0.09668889
0.035159595 -0.105478786 0.07910909 0.035159595 0.11426868 -0.27248687 -0.07910909 -0.13184848
0.105478786 0.09668889 -0.11426868 -0.07031919 0.18458788 0.043949492 -0.008789899 0.07910909
-0.21974747 0.026369696 0.105478786 -0.15821818 0.12305859 0.087898985 -0.22853737 0.12305859
-0.32522625 -0.11426868 -0.043949492 -0.14942828 -0.29885656 0.14942828 -0.035159595 0.16700807
0.105478786 -0.29006666 -0.09668889 -0.11426868 -0.27248687 -0.14063838 -0.30764645 -0.052739393
0.18458788 -0.13184848 -0.17579797 0.07031919 0.008789899 0.026369696 -0.11426868 -0.14942828
0.21974747 -0.22853737 -0.29006666 0.16700807 -0.25490707 -0.24611717 -0.052739393 -0.14942828
-0.35159594 -0.29885656 -0.035159595 0.20216767 -0.27248687 -0.18458788 -0.24611717 -0.061529294
-0.07031919 -0.42191514 0.24611717 -0.6152929 -0.043949492 -0.17579797 -0.32522625 -0.27248687
0.061529294 0.087898985 -0.026369696 -0.43949494 -0.21095757 -0.19337778 -0.19337778 -0.052739393
0.14942828 -0.09668889 -0.017579798 -0.035159595 -0.07031919 -0.21095757 0.14942828 -0.16700807
-0.19337778 -0.27248687 -0.15821818 -0.35159594 -0.22853737 -0.19337778 -0.19337778 -0.07031919
0.16700807 -0.17579797 -0.017579798 -0.017579798 0.17579797 0.07910909 -0.026369696 -0.25490707
0.11426868 0.19337778 0.19337778 -0.21095757 0.07910909 0.017579798 0.29006666 0.24611717
0.5889232 0.23732726 0.14942828 -0.035159595 -0.17579797 -0.035159595 0.07910909 -0.20216767
0.087898985 -0.18458788 -0.25490707 -0.11426868 0.026369696 0.017579798 0.22853737 0.21974747
0.043949492 -0.17579797 0.26369697 -0.31643635 0.14942828 0.035159595 0.052739393 -0.13184848
-0.043949492 0.50981414 -0.16700807 -0.13184848 0.19337778 -0.21974747 0.07910909 0.09668889
-0.07031919 0.008789899 -0.14063838 -0.16700807 -0.09668889 0.061529294 0.008789899 0.12305859
-0.09668889 -0.061529294 -0.13184848 0.19337778 -0.043949492 0.14063838 -0.043949492 -0.23732726
-0.09668889 -0.008789899 0.07910909 -0.21095757 0.14942828 -0.14063838 -0.41312525 -0.15821818
0.16700807 -0.12305859 -0.12305859 0.017579798 -0.21095757 -0.28127676 0.087898985 -0.24611717
-0.24611717 0.15821818 -0.5801333 0.052739393 -0.11426868 0.15821818 -0.13184848 -0.22853737
-0.061529294 -0.13184848 -0.17579797 -0.20216767 0.23732726 -0.12305859 0.16700807 -0.105478786
-0.035159595 -0.035159595 -0.25490707 0.043949492 -0.14063838 0.30764645 -0.18458788 0.087898985
-0.29885656 -0.16700807 -0.043949492 0.11426868 -0.105478786 -0.33401614 0.15821818 -0.23732726
0.14063838 0.043949492 -0.105478786 -0.29885656 0.14942828 0.07031919 -0.07910909 0.043949492
0.052739393 -0.17579797 -0.087898985 -0.008789899 -0.29006666 0.043949492 0.16700807 0.12305859
-0.22853737 -0.31643635 0.28127676 -0.19337778 -0.026369696 -0.12305859 -0.13184848 0.07031919
00000000: fde0 e8ef 030c 080d 0aeb 0411 fd05 dff4
00000010: def5 eaf1 e5f7 fb0b 04f4 0904 0de1 f7f1
00000020: 0c0b f3f8 1505 ff09 e703 0cee 0e0a e60e
00000030: dbf3 fbef de11 fc13 0cdf f5f3 e1f0 ddfa
00000040: 15f1 ec08 0103 f3ef 19e6 df13 e3e4 faef
00000050: d8de fc17 e1eb e4f9 f8d0 1cba fbec dbe1
00000060: 070a fdce e8ea eafa 11f5 fefc f8e8 11ed
00000070: eae1 eed8 e6ea eaf8 13ec fefe 1409 fde3
00000080: 0d16 16e8 0902 211c 431b 11fc ecfc 09e9
00000090: 0aeb e3f3 0302 1a19 05ec 1edc 1104 06f1
000000a0: fb3a edf1 16e7 090b f801 f0ed f507 010e
000000b0: f5f9 f116 fb10 fbe5 f5ff 09e8 11f0 d1ee
000000c0: 13f2 f202 e8e0 0ae4 e412 be06 f312 f1e6
000000d0: f9f1 ece9 1bf2 13f4 fcfc e305 f023 eb0a
000000e0: deed fb0d f4da 12e5 1005 f4de 1108 f705
000000f0: 06ec f6ff df05 130e e6dc 20ea fdf2 f108

sequential/dense_2/MatMul i1 [8, 32] scale=0.009517076 zero_point=0
0.10468784 0.1998586 0.3997172 0.095170766 -0.13323908 -0.3235806 -0.15227322 -0.2855123
-0.5805417 0.11420491 0.30454645 0.25696108 0.20937568 -0.39020014 0.07613661 0.18082446
-0.038068306 -0.41875136 0.06661954 -0.038068306 0.51392215 0.22840983 0.095170766 -0.085653685
-0.4853709 -0.028551228 -0.3997172 -0.47585383 0.1617903 0.14275615 -0.028551228 0.42826843
-0.26647815 0.057102457 0.3235806 -0.19034153 -0.371166 0.39020014 -0.22840983 -0.34261474
-0.2855123 0.009517076 0.22840983 0.39020014 -0.30454645 -0.2855123 0.13323908 -0.36164892
0.33309767 0.34261474 0.009517076 0.24744399 -0.07613661 0.22840983 0.5234392 -0.2855123
-0.038068306 0.15227322 0.07613661 0.06661954 0.13323908 0.047585383 -0.31406352 -0.13323908
-0.17130737 -0.14275615 -0.23792692 0.21889275 -0.14275615 0.36164892 -0.27599522 -0.4092343
-0.24744399 -0.2855123 0.5234392 0.3997172 -0.17130737 0.24744399 -0.24744399 0.028551228
0.25696108 0.2855123 -0.1998586 -0.06661954 0.6376441 0.047585383 -0.07613661 0.34261474
-0.371166 0.07613661 0.123721994 -0.06661954 -0.36164892 0.20937568 0.18082446 0.18082446
0.1998586 0.0 0.3997172 0.11420491 0.1617903 -0.038068306 0.13323908 -0.24744399
0.028551228 0.29502937 0.33309767 0.33309767 -0.06661954 0.23792692 0.38068306 0.057102457
0.24744399 0.06661954 0.371166 -0.23792692 0.86605394 0.19034153 -0.4377855 -0.085653685
-0.34261474 -0.24744399 -0.21889275 0.24744399 0.038068306 0.038068306 0.26647815 -0.019034153
-0.123721994 -0.30454645 -0.3235806 -0.038068306 0.20937568 -0.38068306 -0.095170766 -0.23792692
-0.33309767 -0.38068306 0.25696108 0.1617903 0.29502937 -0.49488798 -0.34261474 0.26647815
0.10468784 0.3235806 -0.028551228 -0.29502937 -0.038068306 0.38068306 -0.5424734 -0.49488798
-0.19034153 0.06661954 -0.2855123 -0.7328149 -0.06661954 -0.27599522 -0.29502937 -0.19034153
-0.123721994 -0.009517076 0.07613661 -0.009517076 0.07613661 -0.19034153 -0.34261474 0.19034153
-0.085653685 0.11420491 -0.123721994 0.1617903 -0.3997172 0.095170766 -0.5329563 -0.9707418
-0.1617903 0.36164892 -0.14275615 0.24744399 0.44730258 0.11420491 0.5615075 0.019034153
-0.085653685 -0.2855123 -0.4092343 -0.13323908 0.29502937 0.33309767 -0.26647815 -0.038068306
0.3521318 -0.36164892 -0.23792692 -0.22840983 0.14275615 -0.11420491 0.009517076 0.26647815
0.07613661 -0.23792692 -0.29502937 0.29502937 0.06661954 0.27599522 -0.10468784 -0.22840983
-0.07613661 -0.6090929 -0.019034153 0.34261474 0.30454645 0.047585383 -0.10468784 0.019034153
0.057102457 0.11420491 0.371166 0.26647815 0.25696108 0.123721994 -0.047585383 0.27599522
-0.20937568 0.29502937 -0.31406352 0.17130737 0.10468784 -0.1617903 0.34261474 -0.38068306
-0.057102457 -0.22840983 0.39020014 -0.123721994 -0.057102457 -0.34261474 -0.07613661 -0.17130737
0.29502937 0.24744399 -0.14275615 -0.24744399 1.2086687 0.36164892 -0.42826843 0.13323908
0.25696108 0.24744399 0.22840983 0.23792692 -0.31406352 0.24744399 0.33309767 -0.18082446
00000000: 0b15 2a0a f2de f0e2 c30c 201b 16d7 0813
00000010: fcd4 07fc 3618 0af7 cdfd d6ce 110f fd2d
00000020: e406 22ec d929 e8dc e201 1829 e0e2 0eda
00000030: 2324 011a f818 37e2 fc10 0807 0e05 dff2
00000040: eef1 e717 f126 e3d5 e6e2 372a ee1a e603
00000050: 1b1e ebf9 4305 f824 d908 0df9 da16 1313
00000060: 1500 2a0c 11fc 0ee6 031f 2323 f919 2806
00000070: 1a07 27e7 5b14 d2f7 dce6 e91a 0404 1cfe
00000080: f3e0 defc 16d8 f6e7 ddd8 1b11 1fcc dc1c
00000090: 0b22 fde1 fc28 c7cc ec07 e2b3 f9e3 e1ec
000000a0: f3ff 08ff 08ec dc14 f70c f311 d60a c89a
000000b0: ef26 f11a 2f0c 3b02 f7e2 d5f2 1f23 e4fc
000000c0: 25da e7e8 0ff4 011c 08e7 e11f 071d f5e8
000000d0: f8c0 fe24 2005 f502 060c 271c 1b0d fb1d
000000e0: ea1f df12 0bef 24d8 fae8 29f3 fadc f8ee
000000f0: 1f1a f1e6 7f26 d30e 1b1a 1819 df1a 23ed

sequential/dense_3/MatMul i1 [1, 8] scale=0.007430777 zero_point=0
-0.55730826 0.54244673 -0.7430777 -0.52015436 -0.014861554 0.94370866 0.53501594 -0.07430777
00000000: b549 9cba fe7f 48f6
