src/lib/libtf/models/yo.tflite (tflite, 11952 bytes, 4 tensors)

sequential/dense/MatMul i1 [128, 36] scale=0.0024069946 zero_point=0
000000 de ff ec 23 0f f7 d5 0a d2 19 f4 ff 57 b8 01 28
       -0.08183782 -0.0024069946 -0.048139893 0.08424481 0.036104918 -0.02166295 -0.10350077 0.024069946 -0.11072175 0.060174864 -0.028883934 -0.0024069946 0.20940852 -0.1733036 0.0024069946 0.096279785
000010 3a 35 28 db 5a 00 26 50 00 e1 d0 f4 9b 34 b0 60
       0.13960569 0.12757072 0.096279785 -0.0890588 0.2166295 0.0 0.09146579 0.19255957 0.0 -0.074616835 -0.115535736 -0.028883934 -0.24310645 0.12516372 -0.19255957 0.23107147
000020 d9 21 9a 0d 0b fa 11 42 3f b4 fc 4b 03 49 e6 08
       -0.093872786 0.07943082 -0.24551345 0.03129093 0.02647694 -0.014441967 0.04091891 0.15886164 0.15164065 -0.18293159 -0.009627978 0.18052459 0.0072209835 0.1757106 -0.06258186 0.019255957
000030 be 02 4c 03 0f ec d3 0b 2d c5 49 ce b9 fe 3e b6
       -0.15886164 0.004813989 0.18293159 0.0072209835 0.036104918 -0.048139893 -0.10831475 0.02647694 0.10831475 -0.14201269 0.1757106 -0.12034973 -0.17089662 -0.004813989 0.14923367 -0.1781176
000040 48 2b c6 ee b9 e9 cc e7 0d 24 47 ee 10 aa db 3e
       0.1733036 0.10350077 -0.13960569 -0.0433259 -0.17089662 -0.055360876 -0.12516372 -0.060174864 0.03129093 0.0866518 0.17089662 -0.0433259 0.038511913 -0.20700154 -0.0890588 0.14923367
000050 18 13 33 e1 e2 f5 ec 40 1b 26 4f da d7 19 24 23
       0.057767868 0.045732897 0.12275673 -0.074616835 -0.072209835 -0.02647694 -0.048139893 0.15404765 0.06498885 0.09146579 0.19015257 -0.09146579 -0.09868678 0.060174864 0.0866518 0.08424481
000060 12 0d d1 29 3e e1 0d 09 1f 26 d1 e7 9e fa e4 cf
       0.0433259 0.03129093 -0.113128744 0.09868678 0.14923367 -0.074616835 0.03129093 0.02166295 0.074616835 0.09146579 -0.113128744 -0.060174864 -0.23588547 -0.014441967 -0.06739585 -0.117942736
000070 d2 1d 26 ea 03 c8 bf c7 12 11 3a ac 26 ee 1b 68
       -0.11072175 0.06980284 0.09146579 -0.05295388 0.0072209835 -0.1347917 -0.15645465 -0.13719869 0.0433259 0.04091891 0.13960569 -0.20218754 0.09146579 -0.0433259 0.06498885 0.25032744
000080 a3 2f ec a4 f6 f6 f1 46 24 9d 40 2c 3d d7 68 ce
       -0.22385049 0.113128744 -0.048139893 -0.2214435 -0.024069946 -0.024069946 -0.036104918 0.16848962 0.0866518 -0.23829247 0.15404765 0.10590776 0.14682667 -0.09868678 0.25032744 -0.12034973
000090 01 15 45 ff 1e d9 c5 17 c5 f5 4b b5 3a e5 ec d0
       0.0024069946 0.050546885 0.16608262 -0.0024069946 0.072209835 -0.093872786 -0.14201269 0.055360876 -0.14201269 -0.02647694 0.18052459 -0.18052459 0.13960569 -0.06498885 -0.048139893 -0.115535736
0000a0 ee 17 cd b4 fb 42 e4 42 d1 ed 49 33 3a 3d e6 d7
       -0.0433259 0.055360876 -0.12275673 -0.18293159 -0.012034973 0.15886164 -0.06739585 0.15886164 -0.113128744 -0.045732897 0.1757106 0.12275673 0.13960569 0.14682667 -0.06258186 -0.09868678
0000b0 ed 1c 0b cf 28 27 be c1 f7 04 2d b7 4e e9 11 3e
       -0.045732897 0.06739585 0.02647694 -0.117942736 0.096279785 0.093872786 -0.15886164 -0.15164065 -0.02166295 0.009627978 0.10831475 -0.1757106 0.18774557 -0.055360876 0.04091891 0.14923367
0000c0 bb 17 c9 22 e7 dd 0e 24 da e9 1a 0d df 0f c6 e3
       -0.16608262 0.055360876 -0.1323847 0.08183782 -0.060174864 -0.08424481 0.033697926 0.0866518 -0.09146579 -0.055360876 0.06258186 0.03129093 -0.07943082 0.036104918 -0.13960569 -0.06980284
0000d0 0e f8 d0 3a e3 f7 0d cc ae 0e d7 de a6 e8 ad 20
       0.033697926 -0.019255957 -0.115535736 0.13960569 -0.06980284 -0.02166295 0.03129093 -0.12516372 -0.19737355 0.033697926 -0.09868678 -0.08183782 -0.2166295 -0.057767868 -0.19978055 0.07702383
0000e0 c3 06 c8 58 d3 d8 fc 19 9c b2 cd 07 d1 3b fc 28
       -0.14682667 0.014441967 -0.1347917 0.21181552 -0.10831475 -0.096279785 -0.009627978 0.060174864 -0.24069946 -0.18774557 -0.12275673 0.016848963 -0.113128744 0.14201269 -0.009627978 0.096279785
0000f0 18 ac d5 48 ff cf dd 17 f5 07 d4 69 cb b1 07 19
       0.057767868 -0.20218754 -0.10350077 0.1733036 -0.0024069946 -0.117942736 -0.08424481 0.055360876 -0.02647694 0.016848963 -0.10590776 0.25273442 -0.12757072 -0.19015257 0.016848963 0.060174864

sequential/dense_1/MatMul i1 [32, 128] scale=0.0025512755 zero_point=0
000000 d2 db e6 3e 41 c0 eb 1d 2c 39 19 35 41 d4 fd d0
       -0.11735868 -0.094397195 -0.06633317 0.15817909 0.1658329 -0.16328163 -0.053576786 0.07398699 0.112256125 0.14542271 0.06378189 0.1352176 0.1658329 -0.112256125 -0.007653827 -0.12246123
000010 03 42 e0 d9 c6 bd 3a 15 0a c1 20 08 1a d8 01 b4
       0.007653827 0.16838418 -0.08164082 -0.09949975 -0.14797398 -0.17093547 0.14797398 0.053576786 0.025512755 -0.16073036 0.08164082 0.020410204 0.06633317 -0.10205102 0.0025512755 -0.19389693
000020 bc c4 dd 13 c9 36 e2 d6 1f 12 10 c5 20 1c c7 cb
       -0.17348674 -0.15307653 -0.08929464 0.048474234 -0.14032015 0.13776888 -0.076538265 -0.10715357 0.079089545 0.04592296 0.04082041 -0.15052526 0.08164082 0.07143571 -0.14542271 -0.1352176
000030 2d de 29 27 d7 c5 c7 2d ef df 46 0a 20 fd 12 18
       0.1148074 -0.08674337 0.1046023 0.09949975 -0.1046023 -0.15052526 -0.14542271 0.1148074 -0.043371685 -0.08419209 0.17858928 0.025512755 0.08164082 -0.007653827 0.04592296 0.061230615
000040 11 1c 04 45 04 f3 c0 33 3e f2 bd 11 c6 b8 c8 fa
       0.043371685 0.07143571 0.010205102 0.17603801 0.010205102 -0.033166584 -0.16328163 0.13011505 0.15817909 -0.035717856 -0.17093547 0.043371685 -0.14797398 -0.18369184 -0.14287142 -0.015307654
000050 1e ef 22 0c c5 3b dc f8 b6 27 bf 06 21 31 c4 ee
       0.076538265 -0.043371685 0.08674337 0.030615307 -0.15052526 0.15052526 -0.09184592 -0.020410204 -0.18879439 0.09949975 -0.1658329 0.015307654 0.08419209 0.1250125 -0.15307653 -0.04592296
000060 fe cd bf 16 b5 47 c1 cf 0b 29 15 0e bb f1 22 b6
       -0.005102551 -0.13011505 -0.1658329 0.056128062 -0.19134566 0.18114056 -0.16073036 -0.1250125 0.028064031 0.1046023 0.053576786 0.035717856 -0.17603801 -0.038269132 0.08674337 -0.18879439
000070 ef d5 fc 1e ca 41 1d f9 07 38 12 fe 2a de d7 b8
       -0.043371685 -0.109704845 -0.010205102 0.076538265 -0.13776888 0.1658329 0.07398699 -0.017858928 0.017858928 0.14287142 0.04592296 -0.005102551 0.10715357 -0.08674337 -0.1046023 -0.18369184
000080 de c4 ed 31 c3 e2 ca f8 38 2b 2c cf 45 f8 1a ff
       -0.08674337 -0.15307653 -0.048474234 0.1250125 -0.1556278 -0.076538265 -0.13776888 -0.020410204 0.14287142 0.109704845 0.112256125 -0.1250125 0.17603801 -0.020410204 0.06633317 -0.0025512755
000090 d9 4c 11 ce e8 44 f2 4e 2c 2b c0 c4 cc e7 1f e7
       -0.09949975 0.19389693 0.043371685 -0.12756377 -0.061230615 0.17348674 -0.035717856 0.1989995 0.112256125 0.109704845 -0.16328163 -0.15307653 -0.13266633 -0.06378189 0.079089545 -0.06378189
0000a0 d7 fa 33 40 f6 1b ff 39 2a c4 44 26 14 15 c4 dd
       -0.1046023 -0.015307654 0.13011505 0.16328163 -0.025512755 0.06888444 -0.0025512755 0.14542271 0.10715357 -0.15307653 0.17348674 0.09694847 0.05102551 0.053576786 -0.15307653 -0.08929464
0000b0 92 f9 07 0a 19 07 26 2c 00 e6 d7 05 df 3c ff ca
       -0.2806403 -0.017858928 0.017858928 0.025512755 0.06378189 0.017858928 0.09694847 0.112256125 0.0 -0.06633317 -0.1046023 0.012756377 -0.08419209 0.15307653 -0.0025512755 -0.13776888
0000c0 b7 38 05 f0 e5 33 02 11 0f b5 f6 ed 28 07 21 19
       -0.18624312 0.14287142 0.012756377 -0.04082041 -0.06888444 0.13011505 0.005102551 0.043371685 0.038269132 -0.19134566 -0.025512755 -0.048474234 0.10205102 0.017858928 0.08419209 0.06378189
0000d0 f2 00 c4 1e df 09 2d 23 1a 1c df d0 b9 1a 19 43
       -0.035717856 0.0 -0.15307653 0.076538265 -0.08419209 0.02296148 0.1148074 0.08929464 0.06633317 0.07143571 -0.08419209 -0.12246123 -0.18114056 0.06633317 0.06378189 0.17093547
0000e0 f7 f1 2b 45 f7 c4 c2 c7 2c ea 14 0d de e2 b6 3a
       -0.02296148 -0.038269132 0.109704845 0.17603801 -0.02296148 -0.15307653 -0.15817909 -0.14542271 0.112256125 -0.056128062 0.05102551 0.033166584 -0.08674337 -0.076538265 -0.18879439 0.14797398
0000f0 4a f7 2a 10 af ca 0f 2b a9 ee 19 ce 32 02 c9 9f
       0.18879439 -0.02296148 0.10715357 0.04082041 -0.20665331 -0.13776888 0.038269132 0.109704845 -0.22196098 -0.04592296 0.06378189 -0.12756377 0.12756377 0.005102551 -0.14032015 -0.24747373

sequential/dense_2/MatMul i1 [8, 32] scale=0.0034991351 zero_point=0
000000 e0 03 12 aa 22 26 ba 7c 42 12 c3 af 14 6e 37 29
       -0.111972325 0.010497405 0.06298443 -0.3009256 0.118970595 0.13296713 -0.24493946 0.43389276 0.23094292 0.06298443 -0.21344724 -0.28342995 0.0699827 0.38490486 0.19245243 0.14346454
000010 fe 61 e5 e7 d1 ab 0f b2 3b f8 15 c7 62 c1 1f 03
       -0.0069982703 0.33941612 -0.09447665 -0.08747838 -0.16445935 -0.2974265 0.052487027 -0.27293253 0.20644897 -0.027993081 0.073481835 -0.1994507 0.34291524 -0.22044551 0.10847319 0.010497405
000020 40 48 09 39 2e a4 97 a1 b1 e4 c5 fb 2a 9a f5 eb
       0.22394465 0.25193772 0.031492215 0.1994507 0.16096021 -0.32192042 -0.3674092 -0.33241785 -0.27643168 -0.09797578 -0.20644897 -0.017495675 0.14696367 -0.35691178 -0.038490485 -0.073481835
000030 c4 8e 0f d0 d0 0f 8c 22 f5 e9 53 b0 cd f2 3f c0
       -0.20994811 -0.3989014 0.052487027 -0.16795848 -0.16795848 0.052487027 -0.40589967 0.118970595 -0.038490485 -0.080480106 0.29042822 -0.2799308 -0.17845589 -0.04898789 0.22044551 -0.22394465
000040 92 a5 18 03 0e 66 85 37 4e 84 00 a1 8f 48 81 c4
       -0.38490486 -0.3184213 0.08397924 0.010497405 0.04898789 0.35691178 -0.43039364 0.19245243 0.27293253 -0.43389276 0.0 -0.33241785 -0.39540228 0.25193772 -0.44439018 -0.20994811
000050 f7 a3 8a 37 06 ea bb 01 21 89 1f 15 ee 8c c5 18
       -0.031492215 -0.32541957 -0.41289794 0.19245243 0.02099481 -0.07698097 -0.24144033 0.0034991351 0.11547146 -0.4163971 0.10847319 0.073481835 -0.06298443 -0.40589967 -0.20644897 0.08397924
000060 9e 39 0f fc a8 bc 2f 06 c8 fd 55 ec 73 b5 de a9
       -0.34291524 0.1994507 0.052487027 -0.013996541 -0.30792388 -0.23794119 0.16445935 0.02099481 -0.19595157 -0.010497405 0.2974265 -0.0699827 0.40240055 -0.26243514 -0.118970595 -0.30442476
000070 45 0e cc 01 23 d4 b2 2e 55 66 00 b7 c8 cc 44 a5
       0.24144033 0.04898789 -0.18195502 0.0034991351 0.12246973 -0.15396194 -0.27293253 0.16096021 0.2974265 0.35691178 0.0 -0.25543687 -0.19595157 -0.18195502 0.23794119 -0.3184213
000080 f6 2f f7 19 2e eb 60 18 be 6d 00 74 67 ce 47 18
       -0.03499135 0.16445935 -0.031492215 0.08747838 0.16096021 -0.073481835 0.33591697 0.08397924 -0.23094292 0.38140574 0.0 0.40589967 0.36041093 -0.17495675 0.2484386 0.08397924
000090 0b 15 aa f6 17 33 ad 01 6a 74 06 bb df e7 01 72
       0.038490485 0.073481835 -0.3009256 -0.03499135 0.080480106 0.17845589 -0.29042822 0.0034991351 0.37090832 0.40589967 0.02099481 -0.24144033 -0.11547146 -0.08747838 0.0034991351 0.3989014
0000a0 f6 18 10 af 52 d5 4d 14 55 cb 2d c8 cc 0a 15 04
       -0.03499135 0.08397924 0.055986162 -0.28342995 0.28692907 -0.1504628 0.2694334 0.0699827 0.2974265 -0.18545416 0.15746108 -0.19595157 -0.18195502 0.03499135 0.073481835 0.013996541
0000b0 ce 40 00 a6 65 58 44 13 36 0f f4 66 33 1a 20 b0
       -0.17495675 0.22394465 0.0 -0.31492215 0.35341266 0.30792388 0.23794119 0.066483565 0.1889533 0.052487027 -0.04198962 0.35691178 0.17845589 0.09097751 0.111972325 -0.2799308
0000c0 9e 2d 19 d3 9a 1c 96 4b a2 1a 14 f4 f7 03 0f 3e
       -0.34291524 0.15746108 0.08747838 -0.15746108 -0.35691178 0.09797578 -0.37090832 0.26243514 -0.3289187 0.09097751 0.0699827 -0.04198962 -0.031492215 0.010497405 0.052487027 0.21694638
0000d0 98 51 20 9a cf b6 b9 53 f4 b3 35 d1 24 bf 57 38
       -0.36391005 0.28342995 0.111972325 -0.35691178 -0.17145762 -0.258936 -0.2484386 0.29042822 -0.04198962 -0.2694334 0.18545416 -0.16445935 0.12596886 -0.22744378 0.30442476 0.19595157
0000e0 5b fd f6 9f 64 c2 07 23 03 a3 6b 26 4e 54 cb f4
       0.3184213 -0.010497405 -0.03499135 -0.33941612 0.3499135 -0.21694638 0.024493946 0.12246973 0.010497405 -0.32541957 0.37440747 0.13296713 0.27293253 0.29392734 -0.18545416 -0.04198962
0000f0 93 ef d9 1d d8 11 9d a2 04 28 e1 30 b9 6c 0a a1
       -0.38140574 -0.059485298 -0.13646626 0.10147492 -0.1399654 0.059485298 -0.3464144 -0.3289187 0.013996541 0.1399654 -0.10847319 0.16795848 -0.2484386 0.3779066 0.03499135 -0.33241785

sequential/y_pred/MatMul i1 [1, 8] scale=0.0049885334 zero_point=0
000000 28 d4 b6 40 72 88 d5 7f
       0.19954133 -0.21949548 -0.36915147 0.31926614 0.5686928 -0.598624 -0.21450694 0.6335437
